…
I0503 16:50:45.094478 10699 net.cpp:338] The NetState phase (0) differed from the phase (1) specified by a rule in layer accuracy_dual
I0503 16:50:45.094504 10699 net.cpp:338] The NetState phase (0) differed from the phase (1) specified by a rule in layer accuracy_single
I0503 16:50:45.094797 10699 net.cpp:74] Initializing net from parameters: 
name: "MNIST_NET"
state {
  phase: TRAIN
  level: 0
  stage: ""
}
layer {
  name: "data"
  type: "ImageData"
  top: "data"
  top: "label"
  include {
    phase: TRAIN
  }
  image_data_param {
    source: "train.txt"
    batch_size: 300
    crop_size: 27
    shuffle: true
    is_color: false
  }
}
layer {
  name: "data_scaling"
  type: "Power"
  bottom: "data"
  top: "data"
  power_param {
    power: 1
    scale: 0.0078125
    shift: -1
  }
}
layer {
  name: "conv1_dual"
  type: "Convolution"
  bottom: "data"
  top: "conv1_dual"
  param {
    name: "conv1_w_dual"
    lr_mult: 1
    decay_mult: 1
  }
  param {
    name: "conv1_b_dual"
    lr_mult: 2
    decay_mult: 0
  }
  convolution_param {
    num_output: 36
    kernel_size: 3
    stride: 2
    weight_filler {
      type: "xavier"
    }
    bias_filler {
      type: "constant"
      value: 0
    }
  }
}
layer {
  name: "relu/conv1_dual"
  type: "ReLU"
  bottom: "conv1_dual"
  top: "relu/conv1_dual"
}
layer {
  name: "conv1_minus_dual"
  type: "Power"
  bottom: "conv1_dual"
  top: "conv1_minus_dual"
  power_param {
    power: 1
    scale: -1
    shift: 0
  }
}
layer {
  name: "relu/conv1_minus_dual"
  type: "ReLU"
  bottom: "conv1_minus_dual"
  top: "relu/conv1_minus_dual"
}
layer {
  name: "conv2_lhs_dual"
  type: "Convolution"
  bottom: "relu/conv1_minus_dual"
  top: "conv2_lhs_dual"
  param {
    name: "conv2_w_dual"
    lr_mult: 1
    decay_mult: 1
  }
  param {
    name: "conv2_b_dual"
    lr_mult: 2
    decay_mult: 0
  }
  convolution_param {
    num_output: 36
    kernel_size: 3
    stride: 2
    weight_filler {
      type: "xavier"
    }
    bias_filler {
      type: "constant"
      value: 0
    }
  }
}
layer {
  name: "relu/conv2_lhs_dual"
  type: "ReLU"
  bottom: "conv2_lhs_dual"
  top: "conv2_lhs_dual"
}
layer {
  name: "conv2_rhs_dual"
  type: "Convolution"
  bottom: "relu/conv1_dual"
  top: "conv2_rhs_dual"
  param {
    name: "conv2_w_dual"
    lr_mult: 1
    decay_mult: 1
  }
  param {
    name: "conv2_b_dual"
    lr_mult: 2
    decay_mult: 0
  }
  convolution_param {
    num_output: 36
    kernel_size: 3
    stride: 2
    weight_filler {
      type: "xavier"
    }
    bias_filler {
      type: "constant"
      value: 0
    }
  }
}
layer {
  name: "relu/conv2_rhs_dual"
  type: "ReLU"
  bottom: "conv2_rhs_dual"
  top: "conv2_rhs_dual"
}
layer {
  name: "fc_10_lhs_dual"
  type: "InnerProduct"
  bottom: "conv2_lhs_dual"
  top: "fc_10_lhs_dual"
  param {
    name: "fc_10_w_dual"
    lr_mult: 5
    decay_mult: 1
  }
  param {
    name: "fc_10_b_dual"
    lr_mult: 10
    decay_mult: 0
  }
  inner_product_param {
    num_output: 10
    weight_filler {
      type: "xavier"
    }
    bias_filler {
      type: "constant"
      value: 0
    }
  }
}
layer {
  name: "fc_10_rhs_dual"
  type: "InnerProduct"
  bottom: "conv2_rhs_dual"
  top: "fc_10_rhs_dual"
  param {
    name: "fc_10_w_dual"
    lr_mult: 5
    decay_mult: 1
  }
  param {
    name: "fc_10_b_dual"
    lr_mult: 10
    decay_mult: 0
  }
  inner_product_param {
    num_output: 10
    weight_filler {
      type: "xavier"
    }
    bias_filler {
      type: "constant"
      value: 0
    }
  }
}
layer {
  name: "fc_10_dual"
  type: "Eltwise"
  bottom: "fc_10_rhs_dual"
  bottom: "fc_10_lhs_dual"
  top: "fc_10_dual"
  eltwise_param {
    operation: SUM
    coeff: 1
    coeff: 1
  }
}
layer {
  name: "loss_dual"
  type: "SoftmaxWithLoss"
  bottom: "fc_10_dual"
  bottom: "label"
  top: "loss_dual"
  include {
    phase: TRAIN
  }
}
layer {
  name: "conv1_single"
  type: "Convolution"
  bottom: "data"
  top: "conv1_single"
  param {
    name: "conv1_w_single"
    lr_mult: 1
    decay_mult: 1
  }
  param {
    name: "conv1_b_single"
    lr_mult: 2
    decay_mult: 0
  }
  convolution_param {
    num_output: 36
    kernel_size: 3
    stride: 2
    weight_filler {
      type: "xavier"
    }
    bias_filler {
      type: "constant"
      value: 0
    }
  }
}
layer {
  name: "relu/conv1_single"
  type: "ReLU"
  bottom: "conv1_single"
  top: "relu/conv1_single"
}
layer {
  name: "conv2_single"
  type: "Convolution"
  bottom: "relu/conv1_single"
  top: "conv2_single"
  param {
    name: "conv2_w_single"
    lr_mult: 1
    decay_mult: 1
  }
  param {
    name: "conv2_b_single"
    lr_mult: 2
    decay_mult: 0
  }
  convolution_param {
    num_output: 36
    kernel_size: 3
    stride: 2
    weight_filler {
      type: "xavier"
    }
    bias_filler {
      type: "constant"
      value: 0
    }
  }
}
layer {
  name: "relu/conv2_single"
  type: "ReLU"
  bottom: "conv2_single"
  top: "conv2_single"
}
layer {
  name: "fc_10_single"
  type: "InnerProduct"
  bottom: "conv2_single"
  top: "fc_10_single"
  param {
    name: "fc_10_w_single"
    lr_mult: 5
    decay_mult: 1
  }
  param {
    name: "fc_10_b_single"
    lr_mult: 10
    decay_mult: 0
  }
  inner_product_param {
    num_output: 10
    weight_filler {
      type: "xavier"
    }
    bias_filler {
      type: "constant"
      value: 0
    }
  }
}
layer {
  name: "loss_single"
  type: "SoftmaxWithLoss"
  bottom: "fc_10_single"
  bottom: "label"
  top: "loss_single"
  include {
    phase: TRAIN
  }
}
I0503 16:50:45.096228 10699 layer_factory.hpp:77] Creating layer data
I0503 16:50:45.096284 10699 net.cpp:116] Creating Layer data
I0503 16:50:45.096309 10699 net.cpp:424] data -> data
I0503 16:50:45.096348 10699 net.cpp:424] data -> label
I0503 16:50:45.096384 10699 image_data_layer.cpp:38] Opening file train.txt
I0503 16:50:45.111384 10699 image_data_layer.cpp:53] Shuffling data
I0503 16:50:45.116597 10699 image_data_layer.cpp:58] A total of 60000 images.
I0503 16:50:45.126904 10699 image_data_layer.cpp:85] output data size: 300,1,28,28
I0503 16:50:45.129535 10699 net.cpp:166] Setting up data
I0503 16:50:45.129559 10699 net.cpp:173] Top shape: 300 1 28 28 (235200)
I0503 16:50:45.129562 10699 net.cpp:173] Top shape: 300 (300)
I0503 16:50:45.129565 10699 net.cpp:181] Memory required for data: 942000
I0503 16:50:45.129571 10699 layer_factory.hpp:77] Creating layer label_data_1_split
I0503 16:50:45.129582 10699 net.cpp:116] Creating Layer label_data_1_split
I0503 16:50:45.129586 10699 net.cpp:450] label_data_1_split <- label
I0503 16:50:45.129595 10699 net.cpp:424] label_data_1_split -> label_data_1_split_0
I0503 16:50:45.129604 10699 net.cpp:424] label_data_1_split -> label_data_1_split_1
I0503 16:50:45.129665 10699 net.cpp:166] Setting up label_data_1_split
I0503 16:50:45.129673 10699 net.cpp:173] Top shape: 300 (300)
I0503 16:50:45.129675 10699 net.cpp:173] Top shape: 300 (300)
I0503 16:50:45.129678 10699 net.cpp:181] Memory required for data: 944400
I0503 16:50:45.129679 10699 layer_factory.hpp:77] Creating layer data_scaling
I0503 16:50:45.129685 10699 net.cpp:116] Creating Layer data_scaling
I0503 16:50:45.129688 10699 net.cpp:450] data_scaling <- data
I0503 16:50:45.129693 10699 net.cpp:411] data_scaling -> data (in-place)
I0503 16:50:45.129699 10699 net.cpp:166] Setting up data_scaling
I0503 16:50:45.129703 10699 net.cpp:173] Top shape: 300 1 28 28 (235200)
I0503 16:50:45.129705 10699 net.cpp:181] Memory required for data: 1885200
I0503 16:50:45.129707 10699 layer_factory.hpp:77] Creating layer data_data_scaling_0_split
I0503 16:50:45.129725 10699 net.cpp:116] Creating Layer data_data_scaling_0_split
I0503 16:50:45.129729 10699 net.cpp:450] data_data_scaling_0_split <- data
I0503 16:50:45.129731 10699 net.cpp:424] data_data_scaling_0_split -> data_data_scaling_0_split_0
I0503 16:50:45.129747 10699 net.cpp:424] data_data_scaling_0_split -> data_data_scaling_0_split_1
I0503 16:50:45.129777 10699 net.cpp:166] Setting up data_data_scaling_0_split
I0503 16:50:45.129781 10699 net.cpp:173] Top shape: 300 1 28 28 (235200)
I0503 16:50:45.129784 10699 net.cpp:173] Top shape: 300 1 28 28 (235200)
I0503 16:50:45.129786 10699 net.cpp:181] Memory required for data: 3766800
I0503 16:50:45.129788 10699 layer_factory.hpp:77] Creating layer conv1_dual
I0503 16:50:45.129802 10699 net.cpp:116] Creating Layer conv1_dual
I0503 16:50:45.129806 10699 net.cpp:450] conv1_dual <- data_data_scaling_0_split_0
I0503 16:50:45.129811 10699 net.cpp:424] conv1_dual -> conv1_dual
I0503 16:50:45.390305 10699 net.cpp:166] Setting up conv1_dual
I0503 16:50:45.390328 10699 net.cpp:173] Top shape: 300 36 13 13 (1825200)
I0503 16:50:45.390331 10699 net.cpp:181] Memory required for data: 11067600
I0503 16:50:45.390346 10699 layer_factory.hpp:77] Creating layer conv1_dual_conv1_dual_0_split
I0503 16:50:45.390355 10699 net.cpp:116] Creating Layer conv1_dual_conv1_dual_0_split
I0503 16:50:45.390358 10699 net.cpp:450] conv1_dual_conv1_dual_0_split <- conv1_dual
I0503 16:50:45.390363 10699 net.cpp:424] conv1_dual_conv1_dual_0_split -> conv1_dual_conv1_dual_0_split_0
I0503 16:50:45.390370 10699 net.cpp:424] conv1_dual_conv1_dual_0_split -> conv1_dual_conv1_dual_0_split_1
I0503 16:50:45.390406 10699 net.cpp:166] Setting up conv1_dual_conv1_dual_0_split
I0503 16:50:45.390413 10699 net.cpp:173] Top shape: 300 36 13 13 (1825200)
I0503 16:50:45.390416 10699 net.cpp:173] Top shape: 300 36 13 13 (1825200)
I0503 16:50:45.390419 10699 net.cpp:181] Memory required for data: 25669200
I0503 16:50:45.390420 10699 layer_factory.hpp:77] Creating layer relu/conv1_dual
I0503 16:50:45.390425 10699 net.cpp:116] Creating Layer relu/conv1_dual
I0503 16:50:45.390429 10699 net.cpp:450] relu/conv1_dual <- conv1_dual_conv1_dual_0_split_0
I0503 16:50:45.390432 10699 net.cpp:424] relu/conv1_dual -> relu/conv1_dual
I0503 16:50:45.390772 10699 net.cpp:166] Setting up relu/conv1_dual
I0503 16:50:45.390784 10699 net.cpp:173] Top shape: 300 36 13 13 (1825200)
I0503 16:50:45.390786 10699 net.cpp:181] Memory required for data: 32970000
I0503 16:50:45.390789 10699 layer_factory.hpp:77] Creating layer conv1_minus_dual
I0503 16:50:45.390794 10699 net.cpp:116] Creating Layer conv1_minus_dual
I0503 16:50:45.390796 10699 net.cpp:450] conv1_minus_dual <- conv1_dual_conv1_dual_0_split_1
I0503 16:50:45.390801 10699 net.cpp:424] conv1_minus_dual -> conv1_minus_dual
I0503 16:50:45.390821 10699 net.cpp:166] Setting up conv1_minus_dual
I0503 16:50:45.390826 10699 net.cpp:173] Top shape: 300 36 13 13 (1825200)
I0503 16:50:45.390828 10699 net.cpp:181] Memory required for data: 40270800
I0503 16:50:45.390831 10699 layer_factory.hpp:77] Creating layer relu/conv1_minus_dual
I0503 16:50:45.390836 10699 net.cpp:116] Creating Layer relu/conv1_minus_dual
I0503 16:50:45.390838 10699 net.cpp:450] relu/conv1_minus_dual <- conv1_minus_dual
I0503 16:50:45.390841 10699 net.cpp:424] relu/conv1_minus_dual -> relu/conv1_minus_dual
I0503 16:50:45.390991 10699 net.cpp:166] Setting up relu/conv1_minus_dual
I0503 16:50:45.391000 10699 net.cpp:173] Top shape: 300 36 13 13 (1825200)
I0503 16:50:45.391003 10699 net.cpp:181] Memory required for data: 47571600
I0503 16:50:45.391005 10699 layer_factory.hpp:77] Creating layer conv2_lhs_dual
I0503 16:50:45.391016 10699 net.cpp:116] Creating Layer conv2_lhs_dual
I0503 16:50:45.391022 10699 net.cpp:450] conv2_lhs_dual <- relu/conv1_minus_dual
I0503 16:50:45.391028 10699 net.cpp:424] conv2_lhs_dual -> conv2_lhs_dual
I0503 16:50:45.392592 10699 net.cpp:166] Setting up conv2_lhs_dual
I0503 16:50:45.392604 10699 net.cpp:173] Top shape: 300 36 6 6 (388800)
I0503 16:50:45.392621 10699 net.cpp:181] Memory required for data: 49126800
I0503 16:50:45.392629 10699 layer_factory.hpp:77] Creating layer relu/conv2_lhs_dual
I0503 16:50:45.392634 10699 net.cpp:116] Creating Layer relu/conv2_lhs_dual
I0503 16:50:45.392637 10699 net.cpp:450] relu/conv2_lhs_dual <- conv2_lhs_dual
I0503 16:50:45.392642 10699 net.cpp:411] relu/conv2_lhs_dual -> conv2_lhs_dual (in-place)
I0503 16:50:45.392969 10699 net.cpp:166] Setting up relu/conv2_lhs_dual
I0503 16:50:45.392980 10699 net.cpp:173] Top shape: 300 36 6 6 (388800)
I0503 16:50:45.392982 10699 net.cpp:181] Memory required for data: 50682000
I0503 16:50:45.392985 10699 layer_factory.hpp:77] Creating layer conv2_rhs_dual
I0503 16:50:45.392994 10699 net.cpp:116] Creating Layer conv2_rhs_dual
I0503 16:50:45.392997 10699 net.cpp:450] conv2_rhs_dual <- relu/conv1_dual
I0503 16:50:45.393003 10699 net.cpp:424] conv2_rhs_dual -> conv2_rhs_dual
I0503 16:50:45.394034 10699 net.cpp:166] Setting up conv2_rhs_dual
I0503 16:50:45.394047 10699 net.cpp:173] Top shape: 300 36 6 6 (388800)
I0503 16:50:45.394049 10699 net.cpp:181] Memory required for data: 52237200
I0503 16:50:45.394053 10699 net.cpp:509] Sharing parameters 'conv2_w_dual' owned by layer 'conv2_lhs_dual', param index 0
I0503 16:50:45.394057 10699 net.cpp:509] Sharing parameters 'conv2_b_dual' owned by layer 'conv2_lhs_dual', param index 1
I0503 16:50:45.394059 10699 layer_factory.hpp:77] Creating layer relu/conv2_rhs_dual
I0503 16:50:45.394067 10699 net.cpp:116] Creating Layer relu/conv2_rhs_dual
I0503 16:50:45.394068 10699 net.cpp:450] relu/conv2_rhs_dual <- conv2_rhs_dual
I0503 16:50:45.394073 10699 net.cpp:411] relu/conv2_rhs_dual -> conv2_rhs_dual (in-place)
I0503 16:50:45.394214 10699 net.cpp:166] Setting up relu/conv2_rhs_dual
I0503 16:50:45.394222 10699 net.cpp:173] Top shape: 300 36 6 6 (388800)
I0503 16:50:45.394225 10699 net.cpp:181] Memory required for data: 53792400
I0503 16:50:45.394228 10699 layer_factory.hpp:77] Creating layer fc_10_lhs_dual
I0503 16:50:45.394234 10699 net.cpp:116] Creating Layer fc_10_lhs_dual
I0503 16:50:45.394237 10699 net.cpp:450] fc_10_lhs_dual <- conv2_lhs_dual
I0503 16:50:45.394243 10699 net.cpp:424] fc_10_lhs_dual -> fc_10_lhs_dual
I0503 16:50:45.394399 10699 net.cpp:166] Setting up fc_10_lhs_dual
I0503 16:50:45.394407 10699 net.cpp:173] Top shape: 300 10 (3000)
I0503 16:50:45.394409 10699 net.cpp:181] Memory required for data: 53804400
I0503 16:50:45.394413 10699 layer_factory.hpp:77] Creating layer fc_10_rhs_dual
I0503 16:50:45.394419 10699 net.cpp:116] Creating Layer fc_10_rhs_dual
I0503 16:50:45.394423 10699 net.cpp:450] fc_10_rhs_dual <- conv2_rhs_dual
I0503 16:50:45.394426 10699 net.cpp:424] fc_10_rhs_dual -> fc_10_rhs_dual
I0503 16:50:45.394564 10699 net.cpp:166] Setting up fc_10_rhs_dual
I0503 16:50:45.394570 10699 net.cpp:173] Top shape: 300 10 (3000)
I0503 16:50:45.394572 10699 net.cpp:181] Memory required for data: 53816400
I0503 16:50:45.394577 10699 net.cpp:509] Sharing parameters 'fc_10_w_dual' owned by layer 'fc_10_lhs_dual', param index 0
I0503 16:50:45.394579 10699 net.cpp:509] Sharing parameters 'fc_10_b_dual' owned by layer 'fc_10_lhs_dual', param index 1
I0503 16:50:45.394582 10699 layer_factory.hpp:77] Creating layer fc_10_dual
I0503 16:50:45.394587 10699 net.cpp:116] Creating Layer fc_10_dual
I0503 16:50:45.394589 10699 net.cpp:450] fc_10_dual <- fc_10_rhs_dual
I0503 16:50:45.394593 10699 net.cpp:450] fc_10_dual <- fc_10_lhs_dual
I0503 16:50:45.394596 10699 net.cpp:424] fc_10_dual -> fc_10_dual
I0503 16:50:45.394618 10699 net.cpp:166] Setting up fc_10_dual
I0503 16:50:45.394624 10699 net.cpp:173] Top shape: 300 10 (3000)
I0503 16:50:45.394626 10699 net.cpp:181] Memory required for data: 53828400
I0503 16:50:45.394629 10699 layer_factory.hpp:77] Creating layer loss_dual
I0503 16:50:45.394634 10699 net.cpp:116] Creating Layer loss_dual
I0503 16:50:45.394637 10699 net.cpp:450] loss_dual <- fc_10_dual
I0503 16:50:45.394640 10699 net.cpp:450] loss_dual <- label_data_1_split_0
I0503 16:50:45.394644 10699 net.cpp:424] loss_dual -> loss_dual
I0503 16:50:45.394662 10699 layer_factory.hpp:77] Creating layer loss_dual
I0503 16:50:45.395419 10699 net.cpp:166] Setting up loss_dual
I0503 16:50:45.395429 10699 net.cpp:173] Top shape: (1)
I0503 16:50:45.395432 10699 net.cpp:176]     with loss weight 1
I0503 16:50:45.395447 10699 net.cpp:181] Memory required for data: 53828404
I0503 16:50:45.395449 10699 layer_factory.hpp:77] Creating layer conv1_single
I0503 16:50:45.395459 10699 net.cpp:116] Creating Layer conv1_single
I0503 16:50:45.395462 10699 net.cpp:450] conv1_single <- data_data_scaling_0_split_1
I0503 16:50:45.395468 10699 net.cpp:424] conv1_single -> conv1_single
I0503 16:50:45.396301 10699 net.cpp:166] Setting up conv1_single
I0503 16:50:45.396312 10699 net.cpp:173] Top shape: 300 36 13 13 (1825200)
I0503 16:50:45.396314 10699 net.cpp:181] Memory required for data: 61129204
I0503 16:50:45.396319 10699 layer_factory.hpp:77] Creating layer relu/conv1_single
I0503 16:50:45.396324 10699 net.cpp:116] Creating Layer relu/conv1_single
I0503 16:50:45.396327 10699 net.cpp:450] relu/conv1_single <- conv1_single
I0503 16:50:45.396332 10699 net.cpp:424] relu/conv1_single -> relu/conv1_single
I0503 16:50:45.396667 10699 net.cpp:166] Setting up relu/conv1_single
I0503 16:50:45.396677 10699 net.cpp:173] Top shape: 300 36 13 13 (1825200)
I0503 16:50:45.396680 10699 net.cpp:181] Memory required for data: 68430004
I0503 16:50:45.396682 10699 layer_factory.hpp:77] Creating layer conv2_single
I0503 16:50:45.396692 10699 net.cpp:116] Creating Layer conv2_single
I0503 16:50:45.396693 10699 net.cpp:450] conv2_single <- relu/conv1_single
I0503 16:50:45.396700 10699 net.cpp:424] conv2_single -> conv2_single
I0503 16:50:45.397738 10699 net.cpp:166] Setting up conv2_single
I0503 16:50:45.397752 10699 net.cpp:173] Top shape: 300 36 6 6 (388800)
I0503 16:50:45.397753 10699 net.cpp:181] Memory required for data: 69985204
I0503 16:50:45.397759 10699 layer_factory.hpp:77] Creating layer relu/conv2_single
I0503 16:50:45.397764 10699 net.cpp:116] Creating Layer relu/conv2_single
I0503 16:50:45.397768 10699 net.cpp:450] relu/conv2_single <- conv2_single
I0503 16:50:45.397770 10699 net.cpp:411] relu/conv2_single -> conv2_single (in-place)
I0503 16:50:45.397917 10699 net.cpp:166] Setting up relu/conv2_single
I0503 16:50:45.397924 10699 net.cpp:173] Top shape: 300 36 6 6 (388800)
I0503 16:50:45.397927 10699 net.cpp:181] Memory required for data: 71540404
I0503 16:50:45.397929 10699 layer_factory.hpp:77] Creating layer fc_10_single
I0503 16:50:45.397935 10699 net.cpp:116] Creating Layer fc_10_single
I0503 16:50:45.397938 10699 net.cpp:450] fc_10_single <- conv2_single
I0503 16:50:45.397943 10699 net.cpp:424] fc_10_single -> fc_10_single
I0503 16:50:45.398099 10699 net.cpp:166] Setting up fc_10_single
I0503 16:50:45.398106 10699 net.cpp:173] Top shape: 300 10 (3000)
I0503 16:50:45.398108 10699 net.cpp:181] Memory required for data: 71552404
I0503 16:50:45.398113 10699 layer_factory.hpp:77] Creating layer loss_single
I0503 16:50:45.398118 10699 net.cpp:116] Creating Layer loss_single
I0503 16:50:45.398120 10699 net.cpp:450] loss_single <- fc_10_single
I0503 16:50:45.398123 10699 net.cpp:450] loss_single <- label_data_1_split_1
I0503 16:50:45.398128 10699 net.cpp:424] loss_single -> loss_single
…
I0503 16:50:45.399210 10699 net.cpp:338] The NetState phase (1) differed from the phase (0) specified by a rule in layer loss_dual
I0503 16:50:45.399217 10699 net.cpp:338] The NetState phase (1) differed from the phase (0) specified by a rule in layer loss_single
I0503 16:50:45.399389 10699 net.cpp:74] Initializing net from parameters: 
name: "MNIST_NET"
state {
  phase: TEST
}
layer {
  name: "data"
  type: "ImageData"
  top: "data"
  top: "label"
  include {
    phase: TEST
  }
  image_data_param {
    source: "test.txt"
    batch_size: 100
    crop_size: 27
    shuffle: true
    is_color: false
  }
}
layer {
  name: "data_scaling"
  type: "Power"
  bottom: "data"
  top: "data"
  power_param {
    power: 1
    scale: 0.0078125
    shift: -1
  }
}
layer {
  name: "conv1_dual"
  type: "Convolution"
  bottom: "data"
  top: "conv1_dual"
  param {
    name: "conv1_w_dual"
    lr_mult: 1
    decay_mult: 1
  }
  param {
    name: "conv1_b_dual"
    lr_mult: 2
    decay_mult: 0
  }
  convolution_param {
    num_output: 36
    kernel_size: 3
    stride: 2
    weight_filler {
      type: "xavier"
    }
    bias_filler {
      type: "constant"
      value: 0
    }
  }
}
layer {
  name: "relu/conv1_dual"
  type: "ReLU"
  bottom: "conv1_dual"
  top: "relu/conv1_dual"
}
layer {
  name: "conv1_minus_dual"
  type: "Power"
  bottom: "conv1_dual"
  top: "conv1_minus_dual"
  power_param {
    power: 1
    scale: -1
    shift: 0
  }
}
layer {
  name: "relu/conv1_minus_dual"
  type: "ReLU"
  bottom: "conv1_minus_dual"
  top: "relu/conv1_minus_dual"
}
layer {
  name: "conv2_lhs_dual"
  type: "Convolution"
  bottom: "relu/conv1_minus_dual"
  top: "conv2_lhs_dual"
  param {
    name: "conv2_w_dual"
    lr_mult: 1
    decay_mult: 1
  }
  param {
    name: "conv2_b_dual"
    lr_mult: 2
    decay_mult: 0
  }
  convolution_param {
    num_output: 36
    kernel_size: 3
    stride: 2
    weight_filler {
      type: "xavier"
    }
    bias_filler {
      type: "constant"
      value: 0
    }
  }
}
layer {
  name: "relu/conv2_lhs_dual"
  type: "ReLU"
  bottom: "conv2_lhs_dual"
  top: "conv2_lhs_dual"
}
layer {
  name: "conv2_rhs_dual"
  type: "Convolution"
  bottom: "relu/conv1_dual"
  top: "conv2_rhs_dual"
  param {
    name: "conv2_w_dual"
    lr_mult: 1
    decay_mult: 1
  }
  param {
    name: "conv2_b_dual"
    lr_mult: 2
    decay_mult: 0
  }
  convolution_param {
    num_output: 36
    kernel_size: 3
    stride: 2
    weight_filler {
      type: "xavier"
    }
    bias_filler {
      type: "constant"
      value: 0
    }
  }
}
layer {
  name: "relu/conv2_rhs_dual"
  type: "ReLU"
  bottom: "conv2_rhs_dual"
  top: "conv2_rhs_dual"
}
layer {
  name: "fc_10_lhs_dual"
  type: "InnerProduct"
  bottom: "conv2_lhs_dual"
  top: "fc_10_lhs_dual"
  param {
    name: "fc_10_w_dual"
    lr_mult: 5
    decay_mult: 1
  }
  param {
    name: "fc_10_b_dual"
    lr_mult: 10
    decay_mult: 0
  }
  inner_product_param {
    num_output: 10
    weight_filler {
      type: "xavier"
    }
    bias_filler {
      type: "constant"
      value: 0
    }
  }
}
layer {
  name: "fc_10_rhs_dual"
  type: "InnerProduct"
  bottom: "conv2_rhs_dual"
  top: "fc_10_rhs_dual"
  param {
    name: "fc_10_w_dual"
    lr_mult: 5
    decay_mult: 1
  }
  param {
    name: "fc_10_b_dual"
    lr_mult: 10
    decay_mult: 0
  }
  inner_product_param {
    num_output: 10
    weight_filler {
      type: "xavier"
    }
    bias_filler {
      type: "constant"
      value: 0
    }
  }
}
layer {
  name: "fc_10_dual"
  type: "Eltwise"
  bottom: "fc_10_rhs_dual"
  bottom: "fc_10_lhs_dual"
  top: "fc_10_dual"
  eltwise_param {
    operation: SUM
    coeff: 1
    coeff: 1
  }
}
layer {
  name: "accuracy_dual"
  type: "Accuracy"
  bottom: "fc_10_dual"
  bottom: "label"
  top: "accuracy_dual"
  include {
    phase: TEST
  }
}
layer {
  name: "conv1_single"
  type: "Convolution"
  bottom: "data"
  top: "conv1_single"
  param {
    name: "conv1_w_single"
    lr_mult: 1
    decay_mult: 1
  }
  param {
    name: "conv1_b_single"
    lr_mult: 2
    decay_mult: 0
  }
  convolution_param {
    num_output: 36
    kernel_size: 3
    stride: 2
    weight_filler {
      type: "xavier"
    }
    bias_filler {
      type: "constant"
      value: 0
    }
  }
}
layer {
  name: "relu/conv1_single"
  type: "ReLU"
  bottom: "conv1_single"
  top: "relu/conv1_single"
}
layer {
  name: "conv2_single"
  type: "Convolution"
  bottom: "relu/conv1_single"
  top: "conv2_single"
  param {
    name: "conv2_w_single"
    lr_mult: 1
    decay_mult: 1
  }
  param {
    name: "conv2_b_single"
    lr_mult: 2
    decay_mult: 0
  }
  convolution_param {
    num_output: 36
    kernel_size: 3
    stride: 2
    weight_filler {
      type: "xavier"
    }
    bias_filler {
      type: "constant"
      value: 0
    }
  }
}
layer {
  name: "relu/conv2_single"
  type: "ReLU"
  bottom: "conv2_single"
  top: "conv2_single"
}
layer {
  name: "fc_10_single"
  type: "InnerProduct"
  bottom: "conv2_single"
  top: "fc_10_single"
  param {
    name: "fc_10_w_single"
    lr_mult: 5
    decay_mult: 1
  }
  param {
    name: "fc_10_b_single"
    lr_mult: 10
    decay_mult: 0
  }
  inner_product_param {
    num_output: 10
    weight_filler {
      type: "xavier"
    }
    bias_filler {
      type: "constant"
      value: 0
    }
  }
}
layer {
  name: "accuracy_single"
  type: "Accuracy"
  bottom: "fc_10_single"
  bottom: "label"
  top: "accuracy_single"
  include {
    phase: TEST
  }
}
I0503 16:50:45.399484 10699 layer_factory.hpp:77] Creating layer data
I0503 16:50:45.399495 10699 net.cpp:116] Creating Layer data
I0503 16:50:45.399499 10699 net.cpp:424] data -> data
I0503 16:50:45.399507 10699 net.cpp:424] data -> label
I0503 16:50:45.399513 10699 image_data_layer.cpp:38] Opening file test.txt
I0503 16:50:45.401643 10699 image_data_layer.cpp:53] Shuffling data
I0503 16:50:45.402448 10699 image_data_layer.cpp:58] A total of 10000 images.
I0503 16:50:45.402645 10699 image_data_layer.cpp:85] output data size: 100,1,28,28
I0503 16:50:45.409204 10699 net.cpp:166] Setting up data
I0503 16:50:45.409216 10699 net.cpp:173] Top shape: 100 1 28 28 (78400)
I0503 16:50:45.409220 10699 net.cpp:173] Top shape: 100 (100)
I0503 16:50:45.409222 10699 net.cpp:181] Memory required for data: 314000
I0503 16:50:45.409237 10699 layer_factory.hpp:77] Creating layer label_data_1_split
I0503 16:50:45.409245 10699 net.cpp:116] Creating Layer label_data_1_split
I0503 16:50:45.409248 10699 net.cpp:450] label_data_1_split <- label
I0503 16:50:45.409252 10699 net.cpp:424] label_data_1_split -> label_data_1_split_0
I0503 16:50:45.409258 10699 net.cpp:424] label_data_1_split -> label_data_1_split_1
I0503 16:50:45.409348 10699 net.cpp:166] Setting up label_data_1_split
I0503 16:50:45.409356 10699 net.cpp:173] Top shape: 100 (100)
I0503 16:50:45.409358 10699 net.cpp:173] Top shape: 100 (100)
I0503 16:50:45.409360 10699 net.cpp:181] Memory required for data: 314800
I0503 16:50:45.409363 10699 layer_factory.hpp:77] Creating layer data_scaling
I0503 16:50:45.409368 10699 net.cpp:116] Creating Layer data_scaling
I0503 16:50:45.409371 10699 net.cpp:450] data_scaling <- data
I0503 16:50:45.409374 10699 net.cpp:411] data_scaling -> data (in-place)
I0503 16:50:45.409379 10699 net.cpp:166] Setting up data_scaling
I0503 16:50:45.409382 10699 net.cpp:173] Top shape: 100 1 28 28 (78400)
I0503 16:50:45.409384 10699 net.cpp:181] Memory required for data: 628400
I0503 16:50:45.409386 10699 layer_factory.hpp:77] Creating layer data_data_scaling_0_split
I0503 16:50:45.409390 10699 net.cpp:116] Creating Layer data_data_scaling_0_split
I0503 16:50:45.409392 10699 net.cpp:450] data_data_scaling_0_split <- data
I0503 16:50:45.409395 10699 net.cpp:424] data_data_scaling_0_split -> data_data_scaling_0_split_0
I0503 16:50:45.409399 10699 net.cpp:424] data_data_scaling_0_split -> data_data_scaling_0_split_1
I0503 16:50:45.409430 10699 net.cpp:166] Setting up data_data_scaling_0_split
I0503 16:50:45.409433 10699 net.cpp:173] Top shape: 100 1 28 28 (78400)
I0503 16:50:45.409436 10699 net.cpp:173] Top shape: 100 1 28 28 (78400)
I0503 16:50:45.409438 10699 net.cpp:181] Memory required for data: 1255600
I0503 16:50:45.409440 10699 layer_factory.hpp:77] Creating layer conv1_dual
I0503 16:50:45.409453 10699 net.cpp:116] Creating Layer conv1_dual
I0503 16:50:45.409456 10699 net.cpp:450] conv1_dual <- data_data_scaling_0_split_0
I0503 16:50:45.409459 10699 net.cpp:424] conv1_dual -> conv1_dual
I0503 16:50:45.414036 10699 net.cpp:166] Setting up conv1_dual
I0503 16:50:45.414048 10699 net.cpp:173] Top shape: 100 36 13 13 (608400)
I0503 16:50:45.414053 10699 net.cpp:181] Memory required for data: 3689200
I0503 16:50:45.414062 10699 layer_factory.hpp:77] Creating layer conv1_dual_conv1_dual_0_split
I0503 16:50:45.414067 10699 net.cpp:116] Creating Layer conv1_dual_conv1_dual_0_split
I0503 16:50:45.414068 10699 net.cpp:450] conv1_dual_conv1_dual_0_split <- conv1_dual
I0503 16:50:45.414079 10699 net.cpp:424] conv1_dual_conv1_dual_0_split -> conv1_dual_conv1_dual_0_split_0
I0503 16:50:45.414084 10699 net.cpp:424] conv1_dual_conv1_dual_0_split -> conv1_dual_conv1_dual_0_split_1
I0503 16:50:45.414129 10699 net.cpp:166] Setting up conv1_dual_conv1_dual_0_split
I0503 16:50:45.414134 10699 net.cpp:173] Top shape: 100 36 13 13 (608400)
I0503 16:50:45.414137 10699 net.cpp:173] Top shape: 100 36 13 13 (608400)
I0503 16:50:45.414139 10699 net.cpp:181] Memory required for data: 8556400
I0503 16:50:45.414141 10699 layer_factory.hpp:77] Creating layer relu/conv1_dual
I0503 16:50:45.414147 10699 net.cpp:116] Creating Layer relu/conv1_dual
I0503 16:50:45.414150 10699 net.cpp:450] relu/conv1_dual <- conv1_dual_conv1_dual_0_split_0
I0503 16:50:45.414153 10699 net.cpp:424] relu/conv1_dual -> relu/conv1_dual
I0503 16:50:45.414749 10699 net.cpp:166] Setting up relu/conv1_dual
I0503 16:50:45.414760 10699 net.cpp:173] Top shape: 100 36 13 13 (608400)
I0503 16:50:45.414763 10699 net.cpp:181] Memory required for data: 10990000
I0503 16:50:45.414765 10699 layer_factory.hpp:77] Creating layer conv1_minus_dual
I0503 16:50:45.414770 10699 net.cpp:116] Creating Layer conv1_minus_dual
I0503 16:50:45.414773 10699 net.cpp:450] conv1_minus_dual <- conv1_dual_conv1_dual_0_split_1
I0503 16:50:45.414777 10699 net.cpp:424] conv1_minus_dual -> conv1_minus_dual
I0503 16:50:45.414810 10699 net.cpp:166] Setting up conv1_minus_dual
I0503 16:50:45.414814 10699 net.cpp:173] Top shape: 100 36 13 13 (608400)
I0503 16:50:45.414816 10699 net.cpp:181] Memory required for data: 13423600
I0503 16:50:45.414819 10699 layer_factory.hpp:77] Creating layer relu/conv1_minus_dual
I0503 16:50:45.414826 10699 net.cpp:116] Creating Layer relu/conv1_minus_dual
I0503 16:50:45.414829 10699 net.cpp:450] relu/conv1_minus_dual <- conv1_minus_dual
I0503 16:50:45.414832 10699 net.cpp:424] relu/conv1_minus_dual -> relu/conv1_minus_dual
I0503 16:50:45.415940 10699 net.cpp:166] Setting up relu/conv1_minus_dual
I0503 16:50:45.415953 10699 net.cpp:173] Top shape: 100 36 13 13 (608400)
I0503 16:50:45.415956 10699 net.cpp:181] Memory required for data: 15857200
I0503 16:50:45.415959 10699 layer_factory.hpp:77] Creating layer conv2_lhs_dual
I0503 16:50:45.415968 10699 net.cpp:116] Creating Layer conv2_lhs_dual
I0503 16:50:45.415971 10699 net.cpp:450] conv2_lhs_dual <- relu/conv1_minus_dual
I0503 16:50:45.415978 10699 net.cpp:424] conv2_lhs_dual -> conv2_lhs_dual
I0503 16:50:45.420126 10699 net.cpp:166] Setting up conv2_lhs_dual
I0503 16:50:45.420140 10699 net.cpp:173] Top shape: 100 36 6 6 (129600)
I0503 16:50:45.420142 10699 net.cpp:181] Memory required for data: 16375600
I0503 16:50:45.420150 10699 layer_factory.hpp:77] Creating layer relu/conv2_lhs_dual
I0503 16:50:45.420156 10699 net.cpp:116] Creating Layer relu/conv2_lhs_dual
I0503 16:50:45.420157 10699 net.cpp:450] relu/conv2_lhs_dual <- conv2_lhs_dual
I0503 16:50:45.420161 10699 net.cpp:411] relu/conv2_lhs_dual -> conv2_lhs_dual (in-place)
I0503 16:50:45.420655 10699 net.cpp:166] Setting up relu/conv2_lhs_dual
I0503 16:50:45.420665 10699 net.cpp:173] Top shape: 100 36 6 6 (129600)
I0503 16:50:45.420668 10699 net.cpp:181] Memory required for data: 16894000
I0503 16:50:45.420670 10699 layer_factory.hpp:77] Creating layer conv2_rhs_dual
I0503 16:50:45.420680 10699 net.cpp:116] Creating Layer conv2_rhs_dual
I0503 16:50:45.420682 10699 net.cpp:450] conv2_rhs_dual <- relu/conv1_dual
I0503 16:50:45.420687 10699 net.cpp:424] conv2_rhs_dual -> conv2_rhs_dual
I0503 16:50:45.425432 10699 net.cpp:166] Setting up conv2_rhs_dual
I0503 16:50:45.425446 10699 net.cpp:173] Top shape: 100 36 6 6 (129600)
I0503 16:50:45.425447 10699 net.cpp:181] Memory required for data: 17412400
I0503 16:50:45.425452 10699 net.cpp:509] Sharing parameters 'conv2_w_dual' owned by layer 'conv2_lhs_dual', param index 0
I0503 16:50:45.425457 10699 net.cpp:509] Sharing parameters 'conv2_b_dual' owned by layer 'conv2_lhs_dual', param index 1
I0503 16:50:45.425458 10699 layer_factory.hpp:77] Creating layer relu/conv2_rhs_dual
I0503 16:50:45.425463 10699 net.cpp:116] Creating Layer relu/conv2_rhs_dual
I0503 16:50:45.425467 10699 net.cpp:450] relu/conv2_rhs_dual <- conv2_rhs_dual
I0503 16:50:45.425472 10699 net.cpp:411] relu/conv2_rhs_dual -> conv2_rhs_dual (in-place)
I0503 16:50:45.425629 10699 net.cpp:166] Setting up relu/conv2_rhs_dual
I0503 16:50:45.425638 10699 net.cpp:173] Top shape: 100 36 6 6 (129600)
I0503 16:50:45.425640 10699 net.cpp:181] Memory required for data: 17930800
I0503 16:50:45.425642 10699 layer_factory.hpp:77] Creating layer fc_10_lhs_dual
I0503 16:50:45.425650 10699 net.cpp:116] Creating Layer fc_10_lhs_dual
I0503 16:50:45.425653 10699 net.cpp:450] fc_10_lhs_dual <- conv2_lhs_dual
I0503 16:50:45.425658 10699 net.cpp:424] fc_10_lhs_dual -> fc_10_lhs_dual
I0503 16:50:45.425825 10699 net.cpp:166] Setting up fc_10_lhs_dual
I0503 16:50:45.425834 10699 net.cpp:173] Top shape: 100 10 (1000)
I0503 16:50:45.425837 10699 net.cpp:181] Memory required for data: 17934800
I0503 16:50:45.425843 10699 layer_factory.hpp:77] Creating layer fc_10_rhs_dual
I0503 16:50:45.425848 10699 net.cpp:116] Creating Layer fc_10_rhs_dual
I0503 16:50:45.425851 10699 net.cpp:450] fc_10_rhs_dual <- conv2_rhs_dual
I0503 16:50:45.425856 10699 net.cpp:424] fc_10_rhs_dual -> fc_10_rhs_dual
I0503 16:50:45.425997 10699 net.cpp:166] Setting up fc_10_rhs_dual
I0503 16:50:45.426005 10699 net.cpp:173] Top shape: 100 10 (1000)
I0503 16:50:45.426018 10699 net.cpp:181] Memory required for data: 17938800
I0503 16:50:45.426023 10699 net.cpp:509] Sharing parameters 'fc_10_w_dual' owned by layer 'fc_10_lhs_dual', param index 0
I0503 16:50:45.426026 10699 net.cpp:509] Sharing parameters 'fc_10_b_dual' owned by layer 'fc_10_lhs_dual', param index 1
I0503 16:50:45.426028 10699 layer_factory.hpp:77] Creating layer fc_10_dual
I0503 16:50:45.426034 10699 net.cpp:116] Creating Layer fc_10_dual
I0503 16:50:45.426036 10699 net.cpp:450] fc_10_dual <- fc_10_rhs_dual
I0503 16:50:45.426039 10699 net.cpp:450] fc_10_dual <- fc_10_lhs_dual
I0503 16:50:45.426043 10699 net.cpp:424] fc_10_dual -> fc_10_dual
I0503 16:50:45.426067 10699 net.cpp:166] Setting up fc_10_dual
I0503 16:50:45.426072 10699 net.cpp:173] Top shape: 100 10 (1000)
I0503 16:50:45.426074 10699 net.cpp:181] Memory required for data: 17942800
I0503 16:50:45.426076 10699 layer_factory.hpp:77] Creating layer accuracy_dual
I0503 16:50:45.426084 10699 net.cpp:116] Creating Layer accuracy_dual
I0503 16:50:45.426085 10699 net.cpp:450] accuracy_dual <- fc_10_dual
I0503 16:50:45.426090 10699 net.cpp:450] accuracy_dual <- label_data_1_split_0
I0503 16:50:45.426092 10699 net.cpp:424] accuracy_dual -> accuracy_dual
I0503 16:50:45.426098 10699 net.cpp:166] Setting up accuracy_dual
I0503 16:50:45.426101 10699 net.cpp:173] Top shape: (1)
I0503 16:50:45.426103 10699 net.cpp:181] Memory required for data: 17942804
I0503 16:50:45.426105 10699 layer_factory.hpp:77] Creating layer conv1_single
I0503 16:50:45.426115 10699 net.cpp:116] Creating Layer conv1_single
I0503 16:50:45.426117 10699 net.cpp:450] conv1_single <- data_data_scaling_0_split_1
I0503 16:50:45.426121 10699 net.cpp:424] conv1_single -> conv1_single
I0503 16:50:45.428851 10699 net.cpp:166] Setting up conv1_single
I0503 16:50:45.428864 10699 net.cpp:173] Top shape: 100 36 13 13 (608400)
I0503 16:50:45.428866 10699 net.cpp:181] Memory required for data: 20376404
I0503 16:50:45.428872 10699 layer_factory.hpp:77] Creating layer relu/conv1_single
I0503 16:50:45.428876 10699 net.cpp:116] Creating Layer relu/conv1_single
I0503 16:50:45.428879 10699 net.cpp:450] relu/conv1_single <- conv1_single
I0503 16:50:45.428884 10699 net.cpp:424] relu/conv1_single -> relu/conv1_single
I0503 16:50:45.429884 10699 net.cpp:166] Setting up relu/conv1_single
I0503 16:50:45.429896 10699 net.cpp:173] Top shape: 100 36 13 13 (608400)
I0503 16:50:45.429899 10699 net.cpp:181] Memory required for data: 22810004
I0503 16:50:45.429901 10699 layer_factory.hpp:77] Creating layer conv2_single
I0503 16:50:45.429910 10699 net.cpp:116] Creating Layer conv2_single
I0503 16:50:45.429913 10699 net.cpp:450] conv2_single <- relu/conv1_single
I0503 16:50:45.429918 10699 net.cpp:424] conv2_single -> conv2_single
I0503 16:50:45.435194 10699 net.cpp:166] Setting up conv2_single
I0503 16:50:45.435205 10699 net.cpp:173] Top shape: 100 36 6 6 (129600)
I0503 16:50:45.435207 10699 net.cpp:181] Memory required for data: 23328404
I0503 16:50:45.435214 10699 layer_factory.hpp:77] Creating layer relu/conv2_single
I0503 16:50:45.435219 10699 net.cpp:116] Creating Layer relu/conv2_single
I0503 16:50:45.435221 10699 net.cpp:450] relu/conv2_single <- conv2_single
I0503 16:50:45.435225 10699 net.cpp:411] relu/conv2_single -> conv2_single (in-place)
I0503 16:50:45.436127 10699 net.cpp:166] Setting up relu/conv2_single
I0503 16:50:45.436136 10699 net.cpp:173] Top shape: 100 36 6 6 (129600)
I0503 16:50:45.436137 10699 net.cpp:181] Memory required for data: 23846804
I0503 16:50:45.436141 10699 layer_factory.hpp:77] Creating layer fc_10_single
I0503 16:50:45.436146 10699 net.cpp:116] Creating Layer fc_10_single
I0503 16:50:45.436149 10699 net.cpp:450] fc_10_single <- conv2_single
I0503 16:50:45.436153 10699 net.cpp:424] fc_10_single -> fc_10_single
I0503 16:50:45.436307 10699 net.cpp:166] Setting up fc_10_single
I0503 16:50:45.436314 10699 net.cpp:173] Top shape: 100 10 (1000)
I0503 16:50:45.436316 10699 net.cpp:181] Memory required for data: 23850804
I0503 16:50:45.436321 10699 layer_factory.hpp:77] Creating layer accuracy_single
I0503 16:50:45.436338 10699 net.cpp:116] Creating Layer accuracy_single
I0503 16:50:45.436342 10699 net.cpp:450] accuracy_single <- fc_10_single
I0503 16:50:45.436344 10699 net.cpp:450] accuracy_single <- label_data_1_split_1
I0503 16:50:45.436348 10699 net.cpp:424] accuracy_single -> accuracy_single
…
