…
I0504 09:03:45.667271 15717 net.cpp:338] The NetState phase (0) differed from the phase (1) specified by a rule in layer accuracy_dual
I0504 09:03:45.667284 15717 net.cpp:338] The NetState phase (0) differed from the phase (1) specified by a rule in layer accuracy_single
I0504 09:03:45.667470 15717 net.cpp:74] Initializing net from parameters: 
name: "MNIST_NET"
state {
  phase: TRAIN
  level: 0
  stage: ""
}
layer {
  name: "data"
  type: "ImageData"
  top: "data"
  top: "label"
  include {
    phase: TRAIN
  }
  image_data_param {
    source: "train.txt"
    batch_size: 300
    crop_size: 27
    shuffle: true
    is_color: false
  }
}
layer {
  name: "data_scaling"
  type: "Power"
  bottom: "data"
  top: "data"
  power_param {
    power: 1
    scale: 0.0078125
    shift: -1
  }
}
layer {
  name: "conv1_dual"
  type: "Convolution"
  bottom: "data"
  top: "conv1_dual"
  param {
    name: "conv1_w_dual"
    lr_mult: 1
    decay_mult: 1
  }
  param {
    name: "conv1_b_dual"
    lr_mult: 2
    decay_mult: 0
  }
  convolution_param {
    num_output: 36
    kernel_size: 3
    stride: 2
    weight_filler {
      type: "xavier"
    }
    bias_filler {
      type: "constant"
      value: 0
    }
  }
}
layer {
  name: "relu/conv1_dual"
  type: "ReLU"
  bottom: "conv1_dual"
  top: "relu/conv1_dual"
}
layer {
  name: "conv1_minus_dual"
  type: "Power"
  bottom: "conv1_dual"
  top: "conv1_minus_dual"
  power_param {
    power: 1
    scale: -1
    shift: 0
  }
}
layer {
  name: "relu/conv1_minus_dual"
  type: "ReLU"
  bottom: "conv1_minus_dual"
  top: "relu/conv1_minus_dual"
}
layer {
  name: "conv2_lhs_dual"
  type: "Convolution"
  bottom: "relu/conv1_minus_dual"
  top: "conv2_lhs_dual"
  param {
    name: "conv2_w_0_dual"
    lr_mult: 1
    decay_mult: 1
  }
  param {
    name: "conv2_b_0_dual"
    lr_mult: 2
    decay_mult: 0
  }
  convolution_param {
    num_output: 36
    kernel_size: 3
    stride: 2
    weight_filler {
      type: "xavier"
    }
    bias_filler {
      type: "constant"
      value: 0
    }
  }
}
layer {
  name: "relu/conv2_lhs_dual"
  type: "ReLU"
  bottom: "conv2_lhs_dual"
  top: "conv2_lhs_dual"
}
layer {
  name: "conv2_rhs_dual"
  type: "Convolution"
  bottom: "relu/conv1_dual"
  top: "conv2_rhs_dual"
  param {
    name: "conv2_w_1_dual"
    lr_mult: 1
    decay_mult: 1
  }
  param {
    name: "conv2_b_1_dual"
    lr_mult: 2
    decay_mult: 0
  }
  convolution_param {
    num_output: 36
    kernel_size: 3
    stride: 2
    weight_filler {
      type: "xavier"
    }
    bias_filler {
      type: "constant"
      value: 0
    }
  }
}
layer {
  name: "relu/conv2_rhs_dual"
  type: "ReLU"
  bottom: "conv2_rhs_dual"
  top: "conv2_rhs_dual"
}
layer {
  name: "fc_10_lhs_dual"
  type: "InnerProduct"
  bottom: "conv2_lhs_dual"
  top: "fc_10_lhs_dual"
  param {
    name: "fc_10_w_0_dual"
    lr_mult: 5
    decay_mult: 1
  }
  param {
    name: "fc_10_b_0_dual"
    lr_mult: 10
    decay_mult: 0
  }
  inner_product_param {
    num_output: 10
    weight_filler {
      type: "xavier"
    }
    bias_filler {
      type: "constant"
      value: 0
    }
  }
}
layer {
  name: "fc_10_rhs_dual"
  type: "InnerProduct"
  bottom: "conv2_rhs_dual"
  top: "fc_10_rhs_dual"
  param {
    name: "fc_10_w_1_dual"
    lr_mult: 5
    decay_mult: 1
  }
  param {
    name: "fc_10_b_1_dual"
    lr_mult: 10
    decay_mult: 0
  }
  inner_product_param {
    num_output: 10
    weight_filler {
      type: "xavier"
    }
    bias_filler {
      type: "constant"
      value: 0
    }
  }
}
layer {
  name: "fc_10_dual"
  type: "Eltwise"
  bottom: "fc_10_rhs_dual"
  bottom: "fc_10_lhs_dual"
  top: "fc_10_dual"
  eltwise_param {
    operation: SUM
    coeff: 1
    coeff: 1
  }
}
layer {
  name: "loss_dual"
  type: "SoftmaxWithLoss"
  bottom: "fc_10_dual"
  bottom: "label"
  top: "loss_dual"
  include {
    phase: TRAIN
  }
}
layer {
  name: "conv1_single"
  type: "Convolution"
  bottom: "data"
  top: "conv1_single"
  param {
    name: "conv1_w_single"
    lr_mult: 1
    decay_mult: 1
  }
  param {
    name: "conv1_b_single"
    lr_mult: 2
    decay_mult: 0
  }
  convolution_param {
    num_output: 36
    kernel_size: 3
    stride: 2
    weight_filler {
      type: "xavier"
    }
    bias_filler {
      type: "constant"
      value: 0
    }
  }
}
layer {
  name: "relu/conv1_single"
  type: "ReLU"
  bottom: "conv1_single"
  top: "relu/conv1_single"
}
layer {
  name: "conv2_single"
  type: "Convolution"
  bottom: "relu/conv1_single"
  top: "conv2_single"
  param {
    name: "conv2_w_single"
    lr_mult: 1
    decay_mult: 1
  }
  param {
    name: "conv2_b_single"
    lr_mult: 2
    decay_mult: 0
  }
  convolution_param {
    num_output: 72
    kernel_size: 3
    stride: 2
    weight_filler {
      type: "xavier"
    }
    bias_filler {
      type: "constant"
      value: 0
    }
  }
}
layer {
  name: "relu/conv2_single"
  type: "ReLU"
  bottom: "conv2_single"
  top: "conv2_single"
}
layer {
  name: "fc_10_single"
  type: "InnerProduct"
  bottom: "conv2_single"
  top: "fc_10_single"
  param {
    name: "fc_10_w_single"
    lr_mult: 5
    decay_mult: 1
  }
  param {
    name: "fc_10_b_single"
    lr_mult: 10
    decay_mult: 0
  }
  inner_product_param {
    num_output: 10
    weight_filler {
      type: "xavier"
    }
    bias_filler {
      type: "constant"
      value: 0
    }
  }
}
layer {
  name: "loss_single"
  type: "SoftmaxWithLoss"
  bottom: "fc_10_single"
  bottom: "label"
  top: "loss_single"
  include {
    phase: TRAIN
  }
}
I0504 09:03:45.667662 15717 layer_factory.hpp:77] Creating layer data
I0504 09:03:45.667699 15717 net.cpp:116] Creating Layer data
I0504 09:03:45.667707 15717 net.cpp:424] data -> data
I0504 09:03:45.667729 15717 net.cpp:424] data -> label
I0504 09:03:45.667750 15717 image_data_layer.cpp:38] Opening file train.txt
I0504 09:03:45.680703 15717 image_data_layer.cpp:53] Shuffling data
I0504 09:03:45.684845 15717 image_data_layer.cpp:58] A total of 60000 images.
I0504 09:03:45.695227 15717 image_data_layer.cpp:85] output data size: 300,1,28,28
I0504 09:03:45.697813 15717 net.cpp:166] Setting up data
I0504 09:03:45.697834 15717 net.cpp:173] Top shape: 300 1 28 28 (235200)
I0504 09:03:45.697840 15717 net.cpp:173] Top shape: 300 (300)
I0504 09:03:45.697844 15717 net.cpp:181] Memory required for data: 942000
I0504 09:03:45.697854 15717 layer_factory.hpp:77] Creating layer label_data_1_split
I0504 09:03:45.697870 15717 net.cpp:116] Creating Layer label_data_1_split
I0504 09:03:45.697876 15717 net.cpp:450] label_data_1_split <- label
I0504 09:03:45.697892 15717 net.cpp:424] label_data_1_split -> label_data_1_split_0
I0504 09:03:45.697909 15717 net.cpp:424] label_data_1_split -> label_data_1_split_1
I0504 09:03:45.697975 15717 net.cpp:166] Setting up label_data_1_split
I0504 09:03:45.697985 15717 net.cpp:173] Top shape: 300 (300)
I0504 09:03:45.697990 15717 net.cpp:173] Top shape: 300 (300)
I0504 09:03:45.697994 15717 net.cpp:181] Memory required for data: 944400
I0504 09:03:45.697999 15717 layer_factory.hpp:77] Creating layer data_scaling
I0504 09:03:45.698007 15717 net.cpp:116] Creating Layer data_scaling
I0504 09:03:45.698012 15717 net.cpp:450] data_scaling <- data
I0504 09:03:45.698021 15717 net.cpp:411] data_scaling -> data (in-place)
I0504 09:03:45.698031 15717 net.cpp:166] Setting up data_scaling
I0504 09:03:45.698037 15717 net.cpp:173] Top shape: 300 1 28 28 (235200)
I0504 09:03:45.698041 15717 net.cpp:181] Memory required for data: 1885200
I0504 09:03:45.698062 15717 layer_factory.hpp:77] Creating layer data_data_scaling_0_split
I0504 09:03:45.698071 15717 net.cpp:116] Creating Layer data_data_scaling_0_split
I0504 09:03:45.698074 15717 net.cpp:450] data_data_scaling_0_split <- data
I0504 09:03:45.698079 15717 net.cpp:424] data_data_scaling_0_split -> data_data_scaling_0_split_0
I0504 09:03:45.698087 15717 net.cpp:424] data_data_scaling_0_split -> data_data_scaling_0_split_1
I0504 09:03:45.698141 15717 net.cpp:166] Setting up data_data_scaling_0_split
I0504 09:03:45.698150 15717 net.cpp:173] Top shape: 300 1 28 28 (235200)
I0504 09:03:45.698156 15717 net.cpp:173] Top shape: 300 1 28 28 (235200)
I0504 09:03:45.698159 15717 net.cpp:181] Memory required for data: 3766800
I0504 09:03:45.698163 15717 layer_factory.hpp:77] Creating layer conv1_dual
I0504 09:03:45.698185 15717 net.cpp:116] Creating Layer conv1_dual
I0504 09:03:45.698194 15717 net.cpp:450] conv1_dual <- data_data_scaling_0_split_0
I0504 09:03:45.698202 15717 net.cpp:424] conv1_dual -> conv1_dual
I0504 09:03:45.877622 15717 net.cpp:166] Setting up conv1_dual
I0504 09:03:45.877650 15717 net.cpp:173] Top shape: 300 36 13 13 (1825200)
I0504 09:03:45.877653 15717 net.cpp:181] Memory required for data: 11067600
I0504 09:03:45.877674 15717 layer_factory.hpp:77] Creating layer conv1_dual_conv1_dual_0_split
I0504 09:03:45.877688 15717 net.cpp:116] Creating Layer conv1_dual_conv1_dual_0_split
I0504 09:03:45.877694 15717 net.cpp:450] conv1_dual_conv1_dual_0_split <- conv1_dual
I0504 09:03:45.877702 15717 net.cpp:424] conv1_dual_conv1_dual_0_split -> conv1_dual_conv1_dual_0_split_0
I0504 09:03:45.877714 15717 net.cpp:424] conv1_dual_conv1_dual_0_split -> conv1_dual_conv1_dual_0_split_1
I0504 09:03:45.877768 15717 net.cpp:166] Setting up conv1_dual_conv1_dual_0_split
I0504 09:03:45.877780 15717 net.cpp:173] Top shape: 300 36 13 13 (1825200)
I0504 09:03:45.877786 15717 net.cpp:173] Top shape: 300 36 13 13 (1825200)
I0504 09:03:45.877790 15717 net.cpp:181] Memory required for data: 25669200
I0504 09:03:45.877794 15717 layer_factory.hpp:77] Creating layer relu/conv1_dual
I0504 09:03:45.877802 15717 net.cpp:116] Creating Layer relu/conv1_dual
I0504 09:03:45.877807 15717 net.cpp:450] relu/conv1_dual <- conv1_dual_conv1_dual_0_split_0
I0504 09:03:45.877813 15717 net.cpp:424] relu/conv1_dual -> relu/conv1_dual
I0504 09:03:45.878126 15717 net.cpp:166] Setting up relu/conv1_dual
I0504 09:03:45.878140 15717 net.cpp:173] Top shape: 300 36 13 13 (1825200)
I0504 09:03:45.878144 15717 net.cpp:181] Memory required for data: 32970000
I0504 09:03:45.878149 15717 layer_factory.hpp:77] Creating layer conv1_minus_dual
I0504 09:03:45.878159 15717 net.cpp:116] Creating Layer conv1_minus_dual
I0504 09:03:45.878163 15717 net.cpp:450] conv1_minus_dual <- conv1_dual_conv1_dual_0_split_1
I0504 09:03:45.878170 15717 net.cpp:424] conv1_minus_dual -> conv1_minus_dual
I0504 09:03:45.878201 15717 net.cpp:166] Setting up conv1_minus_dual
I0504 09:03:45.878211 15717 net.cpp:173] Top shape: 300 36 13 13 (1825200)
I0504 09:03:45.878216 15717 net.cpp:181] Memory required for data: 40270800
I0504 09:03:45.878219 15717 layer_factory.hpp:77] Creating layer relu/conv1_minus_dual
I0504 09:03:45.878229 15717 net.cpp:116] Creating Layer relu/conv1_minus_dual
I0504 09:03:45.878233 15717 net.cpp:450] relu/conv1_minus_dual <- conv1_minus_dual
I0504 09:03:45.878240 15717 net.cpp:424] relu/conv1_minus_dual -> relu/conv1_minus_dual
I0504 09:03:45.878401 15717 net.cpp:166] Setting up relu/conv1_minus_dual
I0504 09:03:45.878413 15717 net.cpp:173] Top shape: 300 36 13 13 (1825200)
I0504 09:03:45.878417 15717 net.cpp:181] Memory required for data: 47571600
I0504 09:03:45.878422 15717 layer_factory.hpp:77] Creating layer conv2_lhs_dual
I0504 09:03:45.878437 15717 net.cpp:116] Creating Layer conv2_lhs_dual
I0504 09:03:45.878443 15717 net.cpp:450] conv2_lhs_dual <- relu/conv1_minus_dual
I0504 09:03:45.878450 15717 net.cpp:424] conv2_lhs_dual -> conv2_lhs_dual
I0504 09:03:45.879912 15717 net.cpp:166] Setting up conv2_lhs_dual
I0504 09:03:45.879927 15717 net.cpp:173] Top shape: 300 36 6 6 (388800)
I0504 09:03:45.879950 15717 net.cpp:181] Memory required for data: 49126800
I0504 09:03:45.879961 15717 layer_factory.hpp:77] Creating layer relu/conv2_lhs_dual
I0504 09:03:45.879972 15717 net.cpp:116] Creating Layer relu/conv2_lhs_dual
I0504 09:03:45.879977 15717 net.cpp:450] relu/conv2_lhs_dual <- conv2_lhs_dual
I0504 09:03:45.879983 15717 net.cpp:411] relu/conv2_lhs_dual -> conv2_lhs_dual (in-place)
I0504 09:03:45.880282 15717 net.cpp:166] Setting up relu/conv2_lhs_dual
I0504 09:03:45.880296 15717 net.cpp:173] Top shape: 300 36 6 6 (388800)
I0504 09:03:45.880300 15717 net.cpp:181] Memory required for data: 50682000
I0504 09:03:45.880304 15717 layer_factory.hpp:77] Creating layer conv2_rhs_dual
I0504 09:03:45.880319 15717 net.cpp:116] Creating Layer conv2_rhs_dual
I0504 09:03:45.880324 15717 net.cpp:450] conv2_rhs_dual <- relu/conv1_dual
I0504 09:03:45.880339 15717 net.cpp:424] conv2_rhs_dual -> conv2_rhs_dual
I0504 09:03:45.881321 15717 net.cpp:166] Setting up conv2_rhs_dual
I0504 09:03:45.881335 15717 net.cpp:173] Top shape: 300 36 6 6 (388800)
I0504 09:03:45.881340 15717 net.cpp:181] Memory required for data: 52237200
I0504 09:03:45.881350 15717 layer_factory.hpp:77] Creating layer relu/conv2_rhs_dual
I0504 09:03:45.881361 15717 net.cpp:116] Creating Layer relu/conv2_rhs_dual
I0504 09:03:45.881366 15717 net.cpp:450] relu/conv2_rhs_dual <- conv2_rhs_dual
I0504 09:03:45.881371 15717 net.cpp:411] relu/conv2_rhs_dual -> conv2_rhs_dual (in-place)
I0504 09:03:45.881531 15717 net.cpp:166] Setting up relu/conv2_rhs_dual
I0504 09:03:45.881541 15717 net.cpp:173] Top shape: 300 36 6 6 (388800)
I0504 09:03:45.881546 15717 net.cpp:181] Memory required for data: 53792400
I0504 09:03:45.881549 15717 layer_factory.hpp:77] Creating layer fc_10_lhs_dual
I0504 09:03:45.881561 15717 net.cpp:116] Creating Layer fc_10_lhs_dual
I0504 09:03:45.881567 15717 net.cpp:450] fc_10_lhs_dual <- conv2_lhs_dual
I0504 09:03:45.881574 15717 net.cpp:424] fc_10_lhs_dual -> fc_10_lhs_dual
I0504 09:03:45.881750 15717 net.cpp:166] Setting up fc_10_lhs_dual
I0504 09:03:45.881762 15717 net.cpp:173] Top shape: 300 10 (3000)
I0504 09:03:45.881764 15717 net.cpp:181] Memory required for data: 53804400
I0504 09:03:45.881777 15717 layer_factory.hpp:77] Creating layer fc_10_rhs_dual
I0504 09:03:45.881788 15717 net.cpp:116] Creating Layer fc_10_rhs_dual
I0504 09:03:45.881793 15717 net.cpp:450] fc_10_rhs_dual <- conv2_rhs_dual
I0504 09:03:45.881801 15717 net.cpp:424] fc_10_rhs_dual -> fc_10_rhs_dual
I0504 09:03:45.881955 15717 net.cpp:166] Setting up fc_10_rhs_dual
I0504 09:03:45.881965 15717 net.cpp:173] Top shape: 300 10 (3000)
I0504 09:03:45.881968 15717 net.cpp:181] Memory required for data: 53816400
I0504 09:03:45.881978 15717 layer_factory.hpp:77] Creating layer fc_10_dual
I0504 09:03:45.881989 15717 net.cpp:116] Creating Layer fc_10_dual
I0504 09:03:45.881992 15717 net.cpp:450] fc_10_dual <- fc_10_rhs_dual
I0504 09:03:45.881997 15717 net.cpp:450] fc_10_dual <- fc_10_lhs_dual
I0504 09:03:45.882005 15717 net.cpp:424] fc_10_dual -> fc_10_dual
I0504 09:03:45.882043 15717 net.cpp:166] Setting up fc_10_dual
I0504 09:03:45.882053 15717 net.cpp:173] Top shape: 300 10 (3000)
I0504 09:03:45.882057 15717 net.cpp:181] Memory required for data: 53828400
I0504 09:03:45.882061 15717 layer_factory.hpp:77] Creating layer loss_dual
I0504 09:03:45.882071 15717 net.cpp:116] Creating Layer loss_dual
I0504 09:03:45.882076 15717 net.cpp:450] loss_dual <- fc_10_dual
I0504 09:03:45.882081 15717 net.cpp:450] loss_dual <- label_data_1_split_0
I0504 09:03:45.882089 15717 net.cpp:424] loss_dual -> loss_dual
I0504 09:03:45.882102 15717 layer_factory.hpp:77] Creating layer loss_dual
I0504 09:03:45.882872 15717 net.cpp:166] Setting up loss_dual
I0504 09:03:45.882885 15717 net.cpp:173] Top shape: (1)
I0504 09:03:45.882889 15717 net.cpp:176]     with loss weight 1
I0504 09:03:45.882908 15717 net.cpp:181] Memory required for data: 53828404
I0504 09:03:45.882915 15717 layer_factory.hpp:77] Creating layer conv1_single
I0504 09:03:45.882930 15717 net.cpp:116] Creating Layer conv1_single
I0504 09:03:45.882946 15717 net.cpp:450] conv1_single <- data_data_scaling_0_split_1
I0504 09:03:45.882958 15717 net.cpp:424] conv1_single -> conv1_single
I0504 09:03:45.883791 15717 net.cpp:166] Setting up conv1_single
I0504 09:03:45.883805 15717 net.cpp:173] Top shape: 300 36 13 13 (1825200)
I0504 09:03:45.883810 15717 net.cpp:181] Memory required for data: 61129204
I0504 09:03:45.883817 15717 layer_factory.hpp:77] Creating layer relu/conv1_single
I0504 09:03:45.883824 15717 net.cpp:116] Creating Layer relu/conv1_single
I0504 09:03:45.883828 15717 net.cpp:450] relu/conv1_single <- conv1_single
I0504 09:03:45.883837 15717 net.cpp:424] relu/conv1_single -> relu/conv1_single
I0504 09:03:45.884291 15717 net.cpp:166] Setting up relu/conv1_single
I0504 09:03:45.884305 15717 net.cpp:173] Top shape: 300 36 13 13 (1825200)
I0504 09:03:45.884310 15717 net.cpp:181] Memory required for data: 68430004
I0504 09:03:45.884315 15717 layer_factory.hpp:77] Creating layer conv2_single
I0504 09:03:45.884330 15717 net.cpp:116] Creating Layer conv2_single
I0504 09:03:45.884335 15717 net.cpp:450] conv2_single <- relu/conv1_single
I0504 09:03:45.884346 15717 net.cpp:424] conv2_single -> conv2_single
I0504 09:03:45.885929 15717 net.cpp:166] Setting up conv2_single
I0504 09:03:45.885944 15717 net.cpp:173] Top shape: 300 72 6 6 (777600)
I0504 09:03:45.885948 15717 net.cpp:181] Memory required for data: 71540404
I0504 09:03:45.885957 15717 layer_factory.hpp:77] Creating layer relu/conv2_single
I0504 09:03:45.885967 15717 net.cpp:116] Creating Layer relu/conv2_single
I0504 09:03:45.885972 15717 net.cpp:450] relu/conv2_single <- conv2_single
I0504 09:03:45.885979 15717 net.cpp:411] relu/conv2_single -> conv2_single (in-place)
I0504 09:03:45.886143 15717 net.cpp:166] Setting up relu/conv2_single
I0504 09:03:45.886154 15717 net.cpp:173] Top shape: 300 72 6 6 (777600)
I0504 09:03:45.886158 15717 net.cpp:181] Memory required for data: 74650804
I0504 09:03:45.886162 15717 layer_factory.hpp:77] Creating layer fc_10_single
I0504 09:03:45.886173 15717 net.cpp:116] Creating Layer fc_10_single
I0504 09:03:45.886178 15717 net.cpp:450] fc_10_single <- conv2_single
I0504 09:03:45.886186 15717 net.cpp:424] fc_10_single -> fc_10_single
I0504 09:03:45.886404 15717 net.cpp:166] Setting up fc_10_single
I0504 09:03:45.886415 15717 net.cpp:173] Top shape: 300 10 (3000)
I0504 09:03:45.886418 15717 net.cpp:181] Memory required for data: 74662804
I0504 09:03:45.886425 15717 layer_factory.hpp:77] Creating layer loss_single
I0504 09:03:45.886433 15717 net.cpp:116] Creating Layer loss_single
I0504 09:03:45.886438 15717 net.cpp:450] loss_single <- fc_10_single
I0504 09:03:45.886443 15717 net.cpp:450] loss_single <- label_data_1_split_1
I0504 09:03:45.886454 15717 net.cpp:424] loss_single -> loss_single
…
I0504 09:03:45.887573 15717 net.cpp:338] The NetState phase (1) differed from the phase (0) specified by a rule in layer loss_dual
I0504 09:03:45.887586 15717 net.cpp:338] The NetState phase (1) differed from the phase (0) specified by a rule in layer loss_single
I0504 09:03:45.887768 15717 net.cpp:74] Initializing net from parameters: 
name: "MNIST_NET"
state {
  phase: TEST
}
layer {
  name: "data"
  type: "ImageData"
  top: "data"
  top: "label"
  include {
    phase: TEST
  }
  image_data_param {
    source: "test.txt"
    batch_size: 100
    crop_size: 27
    shuffle: true
    is_color: false
  }
}
layer {
  name: "data_scaling"
  type: "Power"
  bottom: "data"
  top: "data"
  power_param {
    power: 1
    scale: 0.0078125
    shift: -1
  }
}
layer {
  name: "conv1_dual"
  type: "Convolution"
  bottom: "data"
  top: "conv1_dual"
  param {
    name: "conv1_w_dual"
    lr_mult: 1
    decay_mult: 1
  }
  param {
    name: "conv1_b_dual"
    lr_mult: 2
    decay_mult: 0
  }
  convolution_param {
    num_output: 36
    kernel_size: 3
    stride: 2
    weight_filler {
      type: "xavier"
    }
    bias_filler {
      type: "constant"
      value: 0
    }
  }
}
layer {
  name: "relu/conv1_dual"
  type: "ReLU"
  bottom: "conv1_dual"
  top: "relu/conv1_dual"
}
layer {
  name: "conv1_minus_dual"
  type: "Power"
  bottom: "conv1_dual"
  top: "conv1_minus_dual"
  power_param {
    power: 1
    scale: -1
    shift: 0
  }
}
layer {
  name: "relu/conv1_minus_dual"
  type: "ReLU"
  bottom: "conv1_minus_dual"
  top: "relu/conv1_minus_dual"
}
layer {
  name: "conv2_lhs_dual"
  type: "Convolution"
  bottom: "relu/conv1_minus_dual"
  top: "conv2_lhs_dual"
  param {
    name: "conv2_w_0_dual"
    lr_mult: 1
    decay_mult: 1
  }
  param {
    name: "conv2_b_0_dual"
    lr_mult: 2
    decay_mult: 0
  }
  convolution_param {
    num_output: 36
    kernel_size: 3
    stride: 2
    weight_filler {
      type: "xavier"
    }
    bias_filler {
      type: "constant"
      value: 0
    }
  }
}
layer {
  name: "relu/conv2_lhs_dual"
  type: "ReLU"
  bottom: "conv2_lhs_dual"
  top: "conv2_lhs_dual"
}
layer {
  name: "conv2_rhs_dual"
  type: "Convolution"
  bottom: "relu/conv1_dual"
  top: "conv2_rhs_dual"
  param {
    name: "conv2_w_1_dual"
    lr_mult: 1
    decay_mult: 1
  }
  param {
    name: "conv2_b_1_dual"
    lr_mult: 2
    decay_mult: 0
  }
  convolution_param {
    num_output: 36
    kernel_size: 3
    stride: 2
    weight_filler {
      type: "xavier"
    }
    bias_filler {
      type: "constant"
      value: 0
    }
  }
}
layer {
  name: "relu/conv2_rhs_dual"
  type: "ReLU"
  bottom: "conv2_rhs_dual"
  top: "conv2_rhs_dual"
}
layer {
  name: "fc_10_lhs_dual"
  type: "InnerProduct"
  bottom: "conv2_lhs_dual"
  top: "fc_10_lhs_dual"
  param {
    name: "fc_10_w_0_dual"
    lr_mult: 5
    decay_mult: 1
  }
  param {
    name: "fc_10_b_0_dual"
    lr_mult: 10
    decay_mult: 0
  }
  inner_product_param {
    num_output: 10
    weight_filler {
      type: "xavier"
    }
    bias_filler {
      type: "constant"
      value: 0
    }
  }
}
layer {
  name: "fc_10_rhs_dual"
  type: "InnerProduct"
  bottom: "conv2_rhs_dual"
  top: "fc_10_rhs_dual"
  param {
    name: "fc_10_w_1_dual"
    lr_mult: 5
    decay_mult: 1
  }
  param {
    name: "fc_10_b_1_dual"
    lr_mult: 10
    decay_mult: 0
  }
  inner_product_param {
    num_output: 10
    weight_filler {
      type: "xavier"
    }
    bias_filler {
      type: "constant"
      value: 0
    }
  }
}
layer {
  name: "fc_10_dual"
  type: "Eltwise"
  bottom: "fc_10_rhs_dual"
  bottom: "fc_10_lhs_dual"
  top: "fc_10_dual"
  eltwise_param {
    operation: SUM
    coeff: 1
    coeff: 1
  }
}
layer {
  name: "accuracy_dual"
  type: "Accuracy"
  bottom: "fc_10_dual"
  bottom: "label"
  top: "accuracy_dual"
  include {
    phase: TEST
  }
}
layer {
  name: "conv1_single"
  type: "Convolution"
  bottom: "data"
  top: "conv1_single"
  param {
    name: "conv1_w_single"
    lr_mult: 1
    decay_mult: 1
  }
  param {
    name: "conv1_b_single"
    lr_mult: 2
    decay_mult: 0
  }
  convolution_param {
    num_output: 36
    kernel_size: 3
    stride: 2
    weight_filler {
      type: "xavier"
    }
    bias_filler {
      type: "constant"
      value: 0
    }
  }
}
layer {
  name: "relu/conv1_single"
  type: "ReLU"
  bottom: "conv1_single"
  top: "relu/conv1_single"
}
layer {
  name: "conv2_single"
  type: "Convolution"
  bottom: "relu/conv1_single"
  top: "conv2_single"
  param {
    name: "conv2_w_single"
    lr_mult: 1
    decay_mult: 1
  }
  param {
    name: "conv2_b_single"
    lr_mult: 2
    decay_mult: 0
  }
  convolution_param {
    num_output: 72
    kernel_size: 3
    stride: 2
    weight_filler {
      type: "xavier"
    }
    bias_filler {
      type: "constant"
      value: 0
    }
  }
}
layer {
  name: "relu/conv2_single"
  type: "ReLU"
  bottom: "conv2_single"
  top: "conv2_single"
}
layer {
  name: "fc_10_single"
  type: "InnerProduct"
  bottom: "conv2_single"
  top: "fc_10_single"
  param {
    name: "fc_10_w_single"
    lr_mult: 5
    decay_mult: 1
  }
  param {
    name: "fc_10_b_single"
    lr_mult: 10
    decay_mult: 0
  }
  inner_product_param {
    num_output: 10
    weight_filler {
      type: "xavier"
    }
    bias_filler {
      type: "constant"
      value: 0
    }
  }
}
layer {
  name: "accuracy_single"
  type: "Accuracy"
  bottom: "fc_10_single"
  bottom: "label"
  top: "accuracy_single"
  include {
    phase: TEST
  }
}
I0504 09:03:45.887922 15717 layer_factory.hpp:77] Creating layer data
I0504 09:03:45.887938 15717 net.cpp:116] Creating Layer data
I0504 09:03:45.887943 15717 net.cpp:424] data -> data
I0504 09:03:45.887953 15717 net.cpp:424] data -> label
I0504 09:03:45.887962 15717 image_data_layer.cpp:38] Opening file test.txt
I0504 09:03:45.890686 15717 image_data_layer.cpp:53] Shuffling data
I0504 09:03:45.891273 15717 image_data_layer.cpp:58] A total of 10000 images.
I0504 09:03:45.891422 15717 image_data_layer.cpp:85] output data size: 100,1,28,28
I0504 09:03:45.892323 15717 net.cpp:166] Setting up data
I0504 09:03:45.892336 15717 net.cpp:173] Top shape: 100 1 28 28 (78400)
I0504 09:03:45.892343 15717 net.cpp:173] Top shape: 100 (100)
I0504 09:03:45.892346 15717 net.cpp:181] Memory required for data: 314000
I0504 09:03:45.892351 15717 layer_factory.hpp:77] Creating layer label_data_1_split
I0504 09:03:45.892360 15717 net.cpp:116] Creating Layer label_data_1_split
I0504 09:03:45.892365 15717 net.cpp:450] label_data_1_split <- label
I0504 09:03:45.892371 15717 net.cpp:424] label_data_1_split -> label_data_1_split_0
I0504 09:03:45.892381 15717 net.cpp:424] label_data_1_split -> label_data_1_split_1
I0504 09:03:45.892490 15717 net.cpp:166] Setting up label_data_1_split
I0504 09:03:45.892500 15717 net.cpp:173] Top shape: 100 (100)
I0504 09:03:45.892505 15717 net.cpp:173] Top shape: 100 (100)
I0504 09:03:45.892509 15717 net.cpp:181] Memory required for data: 314800
I0504 09:03:45.892513 15717 layer_factory.hpp:77] Creating layer data_scaling
I0504 09:03:45.892521 15717 net.cpp:116] Creating Layer data_scaling
I0504 09:03:45.892526 15717 net.cpp:450] data_scaling <- data
I0504 09:03:45.892532 15717 net.cpp:411] data_scaling -> data (in-place)
I0504 09:03:45.892540 15717 net.cpp:166] Setting up data_scaling
I0504 09:03:45.892546 15717 net.cpp:173] Top shape: 100 1 28 28 (78400)
I0504 09:03:45.892550 15717 net.cpp:181] Memory required for data: 628400
I0504 09:03:45.892554 15717 layer_factory.hpp:77] Creating layer data_data_scaling_0_split
I0504 09:03:45.892560 15717 net.cpp:116] Creating Layer data_data_scaling_0_split
I0504 09:03:45.892563 15717 net.cpp:450] data_data_scaling_0_split <- data
I0504 09:03:45.892570 15717 net.cpp:424] data_data_scaling_0_split -> data_data_scaling_0_split_0
I0504 09:03:45.892577 15717 net.cpp:424] data_data_scaling_0_split -> data_data_scaling_0_split_1
I0504 09:03:45.892624 15717 net.cpp:166] Setting up data_data_scaling_0_split
I0504 09:03:45.892633 15717 net.cpp:173] Top shape: 100 1 28 28 (78400)
I0504 09:03:45.892639 15717 net.cpp:173] Top shape: 100 1 28 28 (78400)
I0504 09:03:45.892642 15717 net.cpp:181] Memory required for data: 1255600
I0504 09:03:45.892647 15717 layer_factory.hpp:77] Creating layer conv1_dual
I0504 09:03:45.892664 15717 net.cpp:116] Creating Layer conv1_dual
I0504 09:03:45.892669 15717 net.cpp:450] conv1_dual <- data_data_scaling_0_split_0
I0504 09:03:45.892678 15717 net.cpp:424] conv1_dual -> conv1_dual
I0504 09:03:45.893815 15717 net.cpp:166] Setting up conv1_dual
I0504 09:03:45.893827 15717 net.cpp:173] Top shape: 100 36 13 13 (608400)
I0504 09:03:45.893831 15717 net.cpp:181] Memory required for data: 3689200
I0504 09:03:45.893844 15717 layer_factory.hpp:77] Creating layer conv1_dual_conv1_dual_0_split
I0504 09:03:45.893856 15717 net.cpp:116] Creating Layer conv1_dual_conv1_dual_0_split
I0504 09:03:45.893859 15717 net.cpp:450] conv1_dual_conv1_dual_0_split <- conv1_dual
I0504 09:03:45.893867 15717 net.cpp:424] conv1_dual_conv1_dual_0_split -> conv1_dual_conv1_dual_0_split_0
I0504 09:03:45.893874 15717 net.cpp:424] conv1_dual_conv1_dual_0_split -> conv1_dual_conv1_dual_0_split_1
I0504 09:03:45.893925 15717 net.cpp:166] Setting up conv1_dual_conv1_dual_0_split
I0504 09:03:45.893935 15717 net.cpp:173] Top shape: 100 36 13 13 (608400)
I0504 09:03:45.893942 15717 net.cpp:173] Top shape: 100 36 13 13 (608400)
I0504 09:03:45.893946 15717 net.cpp:181] Memory required for data: 8556400
I0504 09:03:45.893949 15717 layer_factory.hpp:77] Creating layer relu/conv1_dual
I0504 09:03:45.893956 15717 net.cpp:116] Creating Layer relu/conv1_dual
I0504 09:03:45.893960 15717 net.cpp:450] relu/conv1_dual <- conv1_dual_conv1_dual_0_split_0
I0504 09:03:45.893968 15717 net.cpp:424] relu/conv1_dual -> relu/conv1_dual
I0504 09:03:45.894165 15717 net.cpp:166] Setting up relu/conv1_dual
I0504 09:03:45.894176 15717 net.cpp:173] Top shape: 100 36 13 13 (608400)
I0504 09:03:45.894184 15717 net.cpp:181] Memory required for data: 10990000
I0504 09:03:45.894188 15717 layer_factory.hpp:77] Creating layer conv1_minus_dual
I0504 09:03:45.894196 15717 net.cpp:116] Creating Layer conv1_minus_dual
I0504 09:03:45.894199 15717 net.cpp:450] conv1_minus_dual <- conv1_dual_conv1_dual_0_split_1
I0504 09:03:45.894207 15717 net.cpp:424] conv1_minus_dual -> conv1_minus_dual
I0504 09:03:45.894244 15717 net.cpp:166] Setting up conv1_minus_dual
I0504 09:03:45.894253 15717 net.cpp:173] Top shape: 100 36 13 13 (608400)
I0504 09:03:45.894258 15717 net.cpp:181] Memory required for data: 13423600
I0504 09:03:45.894261 15717 layer_factory.hpp:77] Creating layer relu/conv1_minus_dual
I0504 09:03:45.894270 15717 net.cpp:116] Creating Layer relu/conv1_minus_dual
I0504 09:03:45.894276 15717 net.cpp:450] relu/conv1_minus_dual <- conv1_minus_dual
I0504 09:03:45.894294 15717 net.cpp:424] relu/conv1_minus_dual -> relu/conv1_minus_dual
I0504 09:03:45.894640 15717 net.cpp:166] Setting up relu/conv1_minus_dual
I0504 09:03:45.894654 15717 net.cpp:173] Top shape: 100 36 13 13 (608400)
I0504 09:03:45.894657 15717 net.cpp:181] Memory required for data: 15857200
I0504 09:03:45.894662 15717 layer_factory.hpp:77] Creating layer conv2_lhs_dual
I0504 09:03:45.894685 15717 net.cpp:116] Creating Layer conv2_lhs_dual
I0504 09:03:45.894690 15717 net.cpp:450] conv2_lhs_dual <- relu/conv1_minus_dual
I0504 09:03:45.894701 15717 net.cpp:424] conv2_lhs_dual -> conv2_lhs_dual
I0504 09:03:45.895931 15717 net.cpp:166] Setting up conv2_lhs_dual
I0504 09:03:45.895943 15717 net.cpp:173] Top shape: 100 36 6 6 (129600)
I0504 09:03:45.895947 15717 net.cpp:181] Memory required for data: 16375600
I0504 09:03:45.895957 15717 layer_factory.hpp:77] Creating layer relu/conv2_lhs_dual
I0504 09:03:45.895968 15717 net.cpp:116] Creating Layer relu/conv2_lhs_dual
I0504 09:03:45.895973 15717 net.cpp:450] relu/conv2_lhs_dual <- conv2_lhs_dual
I0504 09:03:45.895979 15717 net.cpp:411] relu/conv2_lhs_dual -> conv2_lhs_dual (in-place)
I0504 09:03:45.896155 15717 net.cpp:166] Setting up relu/conv2_lhs_dual
I0504 09:03:45.896168 15717 net.cpp:173] Top shape: 100 36 6 6 (129600)
I0504 09:03:45.896173 15717 net.cpp:181] Memory required for data: 16894000
I0504 09:03:45.896178 15717 layer_factory.hpp:77] Creating layer conv2_rhs_dual
I0504 09:03:45.896190 15717 net.cpp:116] Creating Layer conv2_rhs_dual
I0504 09:03:45.896195 15717 net.cpp:450] conv2_rhs_dual <- relu/conv1_dual
I0504 09:03:45.896203 15717 net.cpp:424] conv2_rhs_dual -> conv2_rhs_dual
I0504 09:03:45.897263 15717 net.cpp:166] Setting up conv2_rhs_dual
I0504 09:03:45.897275 15717 net.cpp:173] Top shape: 100 36 6 6 (129600)
I0504 09:03:45.897279 15717 net.cpp:181] Memory required for data: 17412400
I0504 09:03:45.897290 15717 layer_factory.hpp:77] Creating layer relu/conv2_rhs_dual
I0504 09:03:45.897299 15717 net.cpp:116] Creating Layer relu/conv2_rhs_dual
I0504 09:03:45.897305 15717 net.cpp:450] relu/conv2_rhs_dual <- conv2_rhs_dual
I0504 09:03:45.897312 15717 net.cpp:411] relu/conv2_rhs_dual -> conv2_rhs_dual (in-place)
I0504 09:03:45.897475 15717 net.cpp:166] Setting up relu/conv2_rhs_dual
I0504 09:03:45.897486 15717 net.cpp:173] Top shape: 100 36 6 6 (129600)
I0504 09:03:45.897490 15717 net.cpp:181] Memory required for data: 17930800
I0504 09:03:45.897495 15717 layer_factory.hpp:77] Creating layer fc_10_lhs_dual
I0504 09:03:45.897505 15717 net.cpp:116] Creating Layer fc_10_lhs_dual
I0504 09:03:45.897511 15717 net.cpp:450] fc_10_lhs_dual <- conv2_lhs_dual
I0504 09:03:45.897517 15717 net.cpp:424] fc_10_lhs_dual -> fc_10_lhs_dual
I0504 09:03:45.897701 15717 net.cpp:166] Setting up fc_10_lhs_dual
I0504 09:03:45.897709 15717 net.cpp:173] Top shape: 100 10 (1000)
I0504 09:03:45.897713 15717 net.cpp:181] Memory required for data: 17934800
I0504 09:03:45.897719 15717 layer_factory.hpp:77] Creating layer fc_10_rhs_dual
I0504 09:03:45.897729 15717 net.cpp:116] Creating Layer fc_10_rhs_dual
I0504 09:03:45.897742 15717 net.cpp:450] fc_10_rhs_dual <- conv2_rhs_dual
I0504 09:03:45.897752 15717 net.cpp:424] fc_10_rhs_dual -> fc_10_rhs_dual
I0504 09:03:45.897925 15717 net.cpp:166] Setting up fc_10_rhs_dual
I0504 09:03:45.897934 15717 net.cpp:173] Top shape: 100 10 (1000)
I0504 09:03:45.897938 15717 net.cpp:181] Memory required for data: 17938800
I0504 09:03:45.897948 15717 layer_factory.hpp:77] Creating layer fc_10_dual
I0504 09:03:45.897956 15717 net.cpp:116] Creating Layer fc_10_dual
I0504 09:03:45.897961 15717 net.cpp:450] fc_10_dual <- fc_10_rhs_dual
I0504 09:03:45.897966 15717 net.cpp:450] fc_10_dual <- fc_10_lhs_dual
I0504 09:03:45.897972 15717 net.cpp:424] fc_10_dual -> fc_10_dual
I0504 09:03:45.898008 15717 net.cpp:166] Setting up fc_10_dual
I0504 09:03:45.898020 15717 net.cpp:173] Top shape: 100 10 (1000)
I0504 09:03:45.898023 15717 net.cpp:181] Memory required for data: 17942800
I0504 09:03:45.898027 15717 layer_factory.hpp:77] Creating layer accuracy_dual
I0504 09:03:45.898046 15717 net.cpp:116] Creating Layer accuracy_dual
I0504 09:03:45.898052 15717 net.cpp:450] accuracy_dual <- fc_10_dual
I0504 09:03:45.898057 15717 net.cpp:450] accuracy_dual <- label_data_1_split_0
I0504 09:03:45.898077 15717 net.cpp:424] accuracy_dual -> accuracy_dual
I0504 09:03:45.898088 15717 net.cpp:166] Setting up accuracy_dual
I0504 09:03:45.898095 15717 net.cpp:173] Top shape: (1)
I0504 09:03:45.898100 15717 net.cpp:181] Memory required for data: 17942804
I0504 09:03:45.898104 15717 layer_factory.hpp:77] Creating layer conv1_single
I0504 09:03:45.898118 15717 net.cpp:116] Creating Layer conv1_single
I0504 09:03:45.898123 15717 net.cpp:450] conv1_single <- data_data_scaling_0_split_1
I0504 09:03:45.898130 15717 net.cpp:424] conv1_single -> conv1_single
I0504 09:03:45.899160 15717 net.cpp:166] Setting up conv1_single
I0504 09:03:45.899174 15717 net.cpp:173] Top shape: 100 36 13 13 (608400)
I0504 09:03:45.899179 15717 net.cpp:181] Memory required for data: 20376404
I0504 09:03:45.899188 15717 layer_factory.hpp:77] Creating layer relu/conv1_single
I0504 09:03:45.899194 15717 net.cpp:116] Creating Layer relu/conv1_single
I0504 09:03:45.899199 15717 net.cpp:450] relu/conv1_single <- conv1_single
I0504 09:03:45.899206 15717 net.cpp:424] relu/conv1_single -> relu/conv1_single
I0504 09:03:45.899549 15717 net.cpp:166] Setting up relu/conv1_single
I0504 09:03:45.899560 15717 net.cpp:173] Top shape: 100 36 13 13 (608400)
I0504 09:03:45.899564 15717 net.cpp:181] Memory required for data: 22810004
I0504 09:03:45.899569 15717 layer_factory.hpp:77] Creating layer conv2_single
I0504 09:03:45.899581 15717 net.cpp:116] Creating Layer conv2_single
I0504 09:03:45.899587 15717 net.cpp:450] conv2_single <- relu/conv1_single
I0504 09:03:45.899600 15717 net.cpp:424] conv2_single -> conv2_single
I0504 09:03:45.900779 15717 net.cpp:166] Setting up conv2_single
I0504 09:03:45.900792 15717 net.cpp:173] Top shape: 100 72 6 6 (259200)
I0504 09:03:45.900796 15717 net.cpp:181] Memory required for data: 23846804
I0504 09:03:45.900804 15717 layer_factory.hpp:77] Creating layer relu/conv2_single
I0504 09:03:45.900813 15717 net.cpp:116] Creating Layer relu/conv2_single
I0504 09:03:45.900818 15717 net.cpp:450] relu/conv2_single <- conv2_single
I0504 09:03:45.900826 15717 net.cpp:411] relu/conv2_single -> conv2_single (in-place)
I0504 09:03:45.901087 15717 net.cpp:166] Setting up relu/conv2_single
I0504 09:03:45.901098 15717 net.cpp:173] Top shape: 100 72 6 6 (259200)
I0504 09:03:45.901101 15717 net.cpp:181] Memory required for data: 24883604
I0504 09:03:45.901105 15717 layer_factory.hpp:77] Creating layer fc_10_single
I0504 09:03:45.901115 15717 net.cpp:116] Creating Layer fc_10_single
I0504 09:03:45.901121 15717 net.cpp:450] fc_10_single <- conv2_single
I0504 09:03:45.901131 15717 net.cpp:424] fc_10_single -> fc_10_single
I0504 09:03:45.901357 15717 net.cpp:166] Setting up fc_10_single
I0504 09:03:45.901368 15717 net.cpp:173] Top shape: 100 10 (1000)
I0504 09:03:45.901372 15717 net.cpp:181] Memory required for data: 24887604
I0504 09:03:45.901381 15717 layer_factory.hpp:77] Creating layer accuracy_single
I0504 09:03:45.901391 15717 net.cpp:116] Creating Layer accuracy_single
I0504 09:03:45.901396 15717 net.cpp:450] accuracy_single <- fc_10_single
I0504 09:03:45.901401 15717 net.cpp:450] accuracy_single <- label_data_1_split_1
I0504 09:03:45.901408 15717 net.cpp:424] accuracy_single -> accuracy_single
…
