…
I0504 08:48:02.531090 13354 net.cpp:338] The NetState phase (0) differed from the phase (1) specified by a rule in layer accuracy_dual
I0504 08:48:02.531096 13354 net.cpp:338] The NetState phase (0) differed from the phase (1) specified by a rule in layer accuracy_single
I0504 08:48:02.531261 13354 net.cpp:74] Initializing net from parameters: 
name: "MNIST_NET"
state {
  phase: TRAIN
  level: 0
  stage: ""
}
layer {
  name: "data"
  type: "ImageData"
  top: "data"
  top: "label"
  include {
    phase: TRAIN
  }
  image_data_param {
    source: "train.txt"
    batch_size: 300
    crop_size: 27
    shuffle: true
    is_color: false
  }
}
layer {
  name: "data_scaling"
  type: "Power"
  bottom: "data"
  top: "data"
  power_param {
    power: 1
    scale: 0.0078125
    shift: -1
  }
}
layer {
  name: "conv1_dual"
  type: "Convolution"
  bottom: "data"
  top: "conv1_dual"
  param {
    name: "conv1_w_dual"
    lr_mult: 1
    decay_mult: 1
  }
  param {
    name: "conv1_b_dual"
    lr_mult: 2
    decay_mult: 0
  }
  convolution_param {
    num_output: 36
    kernel_size: 3
    stride: 2
    weight_filler {
      type: "xavier"
    }
    bias_filler {
      type: "constant"
      value: 0
    }
  }
}
layer {
  name: "relu/conv1_dual"
  type: "ReLU"
  bottom: "conv1_dual"
  top: "relu/conv1_dual"
}
layer {
  name: "conv1_minus_dual"
  type: "Power"
  bottom: "conv1_dual"
  top: "conv1_minus_dual"
  power_param {
    power: 1
    scale: -1
    shift: 0
  }
}
layer {
  name: "relu/conv1_minus_dual"
  type: "ReLU"
  bottom: "conv1_minus_dual"
  top: "relu/conv1_minus_dual"
}
layer {
  name: "conv2_lhs_dual"
  type: "Convolution"
  bottom: "relu/conv1_minus_dual"
  top: "conv2_lhs_dual"
  param {
    name: "conv2_w_dual"
    lr_mult: 1
    decay_mult: 1
  }
  param {
    name: "conv2_b_dual"
    lr_mult: 2
    decay_mult: 0
  }
  convolution_param {
    num_output: 36
    kernel_size: 3
    stride: 2
    weight_filler {
      type: "xavier"
    }
    bias_filler {
      type: "constant"
      value: 0
    }
  }
}
layer {
  name: "relu/conv2_lhs_dual"
  type: "ReLU"
  bottom: "conv2_lhs_dual"
  top: "conv2_lhs_dual"
}
layer {
  name: "conv2_rhs_dual"
  type: "Convolution"
  bottom: "relu/conv1_dual"
  top: "conv2_rhs_dual"
  param {
    name: "conv2_w_dual"
    lr_mult: 1
    decay_mult: 1
  }
  param {
    name: "conv2_b_dual"
    lr_mult: 2
    decay_mult: 0
  }
  convolution_param {
    num_output: 36
    kernel_size: 3
    stride: 2
    weight_filler {
      type: "xavier"
    }
    bias_filler {
      type: "constant"
      value: 0
    }
  }
}
layer {
  name: "relu/conv2_rhs_dual"
  type: "ReLU"
  bottom: "conv2_rhs_dual"
  top: "conv2_rhs_dual"
}
layer {
  name: "fc_10_lhs_dual"
  type: "InnerProduct"
  bottom: "conv2_lhs_dual"
  top: "fc_10_lhs_dual"
  param {
    name: "fc_10_w_0_dual"
    lr_mult: 5
    decay_mult: 1
  }
  param {
    name: "fc_10_b_0_dual"
    lr_mult: 10
    decay_mult: 0
  }
  inner_product_param {
    num_output: 10
    weight_filler {
      type: "xavier"
    }
    bias_filler {
      type: "constant"
      value: 0
    }
  }
}
layer {
  name: "fc_10_rhs_dual"
  type: "InnerProduct"
  bottom: "conv2_rhs_dual"
  top: "fc_10_rhs_dual"
  param {
    name: "fc_10_w_1_dual"
    lr_mult: 5
    decay_mult: 1
  }
  param {
    name: "fc_10_b_1_dual"
    lr_mult: 10
    decay_mult: 0
  }
  inner_product_param {
    num_output: 10
    weight_filler {
      type: "xavier"
    }
    bias_filler {
      type: "constant"
      value: 0
    }
  }
}
layer {
  name: "fc_10_dual"
  type: "Eltwise"
  bottom: "fc_10_rhs_dual"
  bottom: "fc_10_lhs_dual"
  top: "fc_10_dual"
  eltwise_param {
    operation: SUM
    coeff: 1
    coeff: 1
  }
}
layer {
  name: "loss_dual"
  type: "SoftmaxWithLoss"
  bottom: "fc_10_dual"
  bottom: "label"
  top: "loss_dual"
  include {
    phase: TRAIN
  }
}
layer {
  name: "conv1_single"
  type: "Convolution"
  bottom: "data"
  top: "conv1_single"
  param {
    name: "conv1_w_single"
    lr_mult: 1
    decay_mult: 1
  }
  param {
    name: "conv1_b_single"
    lr_mult: 2
    decay_mult: 0
  }
  convolution_param {
    num_output: 36
    kernel_size: 3
    stride: 2
    weight_filler {
      type: "xavier"
    }
    bias_filler {
      type: "constant"
      value: 0
    }
  }
}
layer {
  name: "relu/conv1_single"
  type: "ReLU"
  bottom: "conv1_single"
  top: "relu/conv1_single"
}
layer {
  name: "conv2_single"
  type: "Convolution"
  bottom: "relu/conv1_single"
  top: "conv2_single"
  param {
    name: "conv2_w_single"
    lr_mult: 1
    decay_mult: 1
  }
  param {
    name: "conv2_b_single"
    lr_mult: 2
    decay_mult: 0
  }
  convolution_param {
    num_output: 36
    kernel_size: 3
    stride: 2
    weight_filler {
      type: "xavier"
    }
    bias_filler {
      type: "constant"
      value: 0
    }
  }
}
layer {
  name: "relu/conv2_single"
  type: "ReLU"
  bottom: "conv2_single"
  top: "conv2_single"
}
layer {
  name: "fc_10_single"
  type: "InnerProduct"
  bottom: "conv2_single"
  top: "fc_10_single"
  param {
    name: "fc_10_w_single"
    lr_mult: 5
    decay_mult: 1
  }
  param {
    name: "fc_10_b_single"
    lr_mult: 10
    decay_mult: 0
  }
  inner_product_param {
    num_output: 10
    weight_filler {
      type: "xavier"
    }
    bias_filler {
      type: "constant"
      value: 0
    }
  }
}
layer {
  name: "loss_single"
  type: "SoftmaxWithLoss"
  bottom: "fc_10_single"
  bottom: "label"
  top: "loss_single"
  include {
    phase: TRAIN
  }
}
I0504 08:48:02.531383 13354 layer_factory.hpp:77] Creating layer data
I0504 08:48:02.531409 13354 net.cpp:116] Creating Layer data
I0504 08:48:02.531414 13354 net.cpp:424] data -> data
I0504 08:48:02.531430 13354 net.cpp:424] data -> label
I0504 08:48:02.531440 13354 image_data_layer.cpp:38] Opening file train.txt
I0504 08:48:02.542747 13354 image_data_layer.cpp:53] Shuffling data
I0504 08:48:02.546320 13354 image_data_layer.cpp:58] A total of 60000 images.
I0504 08:48:02.565241 13354 image_data_layer.cpp:85] output data size: 300,1,28,28
I0504 08:48:02.573406 13354 net.cpp:166] Setting up data
I0504 08:48:02.573437 13354 net.cpp:173] Top shape: 300 1 28 28 (235200)
I0504 08:48:02.573443 13354 net.cpp:173] Top shape: 300 (300)
I0504 08:48:02.573447 13354 net.cpp:181] Memory required for data: 942000
I0504 08:48:02.573457 13354 layer_factory.hpp:77] Creating layer label_data_1_split
I0504 08:48:02.573472 13354 net.cpp:116] Creating Layer label_data_1_split
I0504 08:48:02.573479 13354 net.cpp:450] label_data_1_split <- label
I0504 08:48:02.573493 13354 net.cpp:424] label_data_1_split -> label_data_1_split_0
I0504 08:48:02.573508 13354 net.cpp:424] label_data_1_split -> label_data_1_split_1
I0504 08:48:02.573602 13354 net.cpp:166] Setting up label_data_1_split
I0504 08:48:02.573616 13354 net.cpp:173] Top shape: 300 (300)
I0504 08:48:02.573621 13354 net.cpp:173] Top shape: 300 (300)
I0504 08:48:02.573623 13354 net.cpp:181] Memory required for data: 944400
I0504 08:48:02.573628 13354 layer_factory.hpp:77] Creating layer data_scaling
I0504 08:48:02.573637 13354 net.cpp:116] Creating Layer data_scaling
I0504 08:48:02.573642 13354 net.cpp:450] data_scaling <- data
I0504 08:48:02.573647 13354 net.cpp:411] data_scaling -> data (in-place)
I0504 08:48:02.573657 13354 net.cpp:166] Setting up data_scaling
I0504 08:48:02.573667 13354 net.cpp:173] Top shape: 300 1 28 28 (235200)
I0504 08:48:02.573670 13354 net.cpp:181] Memory required for data: 1885200
I0504 08:48:02.573698 13354 layer_factory.hpp:77] Creating layer data_data_scaling_0_split
I0504 08:48:02.573704 13354 net.cpp:116] Creating Layer data_data_scaling_0_split
I0504 08:48:02.573709 13354 net.cpp:450] data_data_scaling_0_split <- data
I0504 08:48:02.573714 13354 net.cpp:424] data_data_scaling_0_split -> data_data_scaling_0_split_0
I0504 08:48:02.573721 13354 net.cpp:424] data_data_scaling_0_split -> data_data_scaling_0_split_1
I0504 08:48:02.573770 13354 net.cpp:166] Setting up data_data_scaling_0_split
I0504 08:48:02.573779 13354 net.cpp:173] Top shape: 300 1 28 28 (235200)
I0504 08:48:02.573784 13354 net.cpp:173] Top shape: 300 1 28 28 (235200)
I0504 08:48:02.573788 13354 net.cpp:181] Memory required for data: 3766800
I0504 08:48:02.573792 13354 layer_factory.hpp:77] Creating layer conv1_dual
I0504 08:48:02.573810 13354 net.cpp:116] Creating Layer conv1_dual
I0504 08:48:02.573817 13354 net.cpp:450] conv1_dual <- data_data_scaling_0_split_0
I0504 08:48:02.573823 13354 net.cpp:424] conv1_dual -> conv1_dual
I0504 08:48:02.895536 13354 net.cpp:166] Setting up conv1_dual
I0504 08:48:02.895571 13354 net.cpp:173] Top shape: 300 36 13 13 (1825200)
I0504 08:48:02.895576 13354 net.cpp:181] Memory required for data: 11067600
I0504 08:48:02.895598 13354 layer_factory.hpp:77] Creating layer conv1_dual_conv1_dual_0_split
I0504 08:48:02.895612 13354 net.cpp:116] Creating Layer conv1_dual_conv1_dual_0_split
I0504 08:48:02.895617 13354 net.cpp:450] conv1_dual_conv1_dual_0_split <- conv1_dual
I0504 08:48:02.895625 13354 net.cpp:424] conv1_dual_conv1_dual_0_split -> conv1_dual_conv1_dual_0_split_0
I0504 08:48:02.895637 13354 net.cpp:424] conv1_dual_conv1_dual_0_split -> conv1_dual_conv1_dual_0_split_1
I0504 08:48:02.895707 13354 net.cpp:166] Setting up conv1_dual_conv1_dual_0_split
I0504 08:48:02.895719 13354 net.cpp:173] Top shape: 300 36 13 13 (1825200)
I0504 08:48:02.895725 13354 net.cpp:173] Top shape: 300 36 13 13 (1825200)
I0504 08:48:02.895730 13354 net.cpp:181] Memory required for data: 25669200
I0504 08:48:02.895736 13354 layer_factory.hpp:77] Creating layer relu/conv1_dual
I0504 08:48:02.895745 13354 net.cpp:116] Creating Layer relu/conv1_dual
I0504 08:48:02.895750 13354 net.cpp:450] relu/conv1_dual <- conv1_dual_conv1_dual_0_split_0
I0504 08:48:02.895758 13354 net.cpp:424] relu/conv1_dual -> relu/conv1_dual
I0504 08:48:02.896160 13354 net.cpp:166] Setting up relu/conv1_dual
I0504 08:48:02.896173 13354 net.cpp:173] Top shape: 300 36 13 13 (1825200)
I0504 08:48:02.896176 13354 net.cpp:181] Memory required for data: 32970000
I0504 08:48:02.896180 13354 layer_factory.hpp:77] Creating layer conv1_minus_dual
I0504 08:48:02.896186 13354 net.cpp:116] Creating Layer conv1_minus_dual
I0504 08:48:02.896189 13354 net.cpp:450] conv1_minus_dual <- conv1_dual_conv1_dual_0_split_1
I0504 08:48:02.896194 13354 net.cpp:424] conv1_minus_dual -> conv1_minus_dual
I0504 08:48:02.896216 13354 net.cpp:166] Setting up conv1_minus_dual
I0504 08:48:02.896220 13354 net.cpp:173] Top shape: 300 36 13 13 (1825200)
I0504 08:48:02.896224 13354 net.cpp:181] Memory required for data: 40270800
I0504 08:48:02.896226 13354 layer_factory.hpp:77] Creating layer relu/conv1_minus_dual
I0504 08:48:02.896232 13354 net.cpp:116] Creating Layer relu/conv1_minus_dual
I0504 08:48:02.896234 13354 net.cpp:450] relu/conv1_minus_dual <- conv1_minus_dual
I0504 08:48:02.896239 13354 net.cpp:424] relu/conv1_minus_dual -> relu/conv1_minus_dual
I0504 08:48:02.896383 13354 net.cpp:166] Setting up relu/conv1_minus_dual
I0504 08:48:02.896392 13354 net.cpp:173] Top shape: 300 36 13 13 (1825200)
I0504 08:48:02.896395 13354 net.cpp:181] Memory required for data: 47571600
I0504 08:48:02.896399 13354 layer_factory.hpp:77] Creating layer conv2_lhs_dual
I0504 08:48:02.896409 13354 net.cpp:116] Creating Layer conv2_lhs_dual
I0504 08:48:02.896414 13354 net.cpp:450] conv2_lhs_dual <- relu/conv1_minus_dual
I0504 08:48:02.896419 13354 net.cpp:424] conv2_lhs_dual -> conv2_lhs_dual
I0504 08:48:02.898025 13354 net.cpp:166] Setting up conv2_lhs_dual
I0504 08:48:02.898044 13354 net.cpp:173] Top shape: 300 36 6 6 (388800)
I0504 08:48:02.898068 13354 net.cpp:181] Memory required for data: 49126800
I0504 08:48:02.898078 13354 layer_factory.hpp:77] Creating layer relu/conv2_lhs_dual
I0504 08:48:02.898087 13354 net.cpp:116] Creating Layer relu/conv2_lhs_dual
I0504 08:48:02.898089 13354 net.cpp:450] relu/conv2_lhs_dual <- conv2_lhs_dual
I0504 08:48:02.898094 13354 net.cpp:411] relu/conv2_lhs_dual -> conv2_lhs_dual (in-place)
I0504 08:48:02.898414 13354 net.cpp:166] Setting up relu/conv2_lhs_dual
I0504 08:48:02.898427 13354 net.cpp:173] Top shape: 300 36 6 6 (388800)
I0504 08:48:02.898429 13354 net.cpp:181] Memory required for data: 50682000
I0504 08:48:02.898433 13354 layer_factory.hpp:77] Creating layer conv2_rhs_dual
I0504 08:48:02.898443 13354 net.cpp:116] Creating Layer conv2_rhs_dual
I0504 08:48:02.898447 13354 net.cpp:450] conv2_rhs_dual <- relu/conv1_dual
I0504 08:48:02.898453 13354 net.cpp:424] conv2_rhs_dual -> conv2_rhs_dual
I0504 08:48:02.900249 13354 net.cpp:166] Setting up conv2_rhs_dual
I0504 08:48:02.900262 13354 net.cpp:173] Top shape: 300 36 6 6 (388800)
I0504 08:48:02.900265 13354 net.cpp:181] Memory required for data: 52237200
I0504 08:48:02.900271 13354 net.cpp:509] Sharing parameters 'conv2_w_dual' owned by layer 'conv2_lhs_dual', param index 0
I0504 08:48:02.900275 13354 net.cpp:509] Sharing parameters 'conv2_b_dual' owned by layer 'conv2_lhs_dual', param index 1
I0504 08:48:02.900279 13354 layer_factory.hpp:77] Creating layer relu/conv2_rhs_dual
I0504 08:48:02.900283 13354 net.cpp:116] Creating Layer relu/conv2_rhs_dual
I0504 08:48:02.900286 13354 net.cpp:450] relu/conv2_rhs_dual <- conv2_rhs_dual
I0504 08:48:02.900291 13354 net.cpp:411] relu/conv2_rhs_dual -> conv2_rhs_dual (in-place)
I0504 08:48:02.901604 13354 net.cpp:166] Setting up relu/conv2_rhs_dual
I0504 08:48:02.901613 13354 net.cpp:173] Top shape: 300 36 6 6 (388800)
I0504 08:48:02.901617 13354 net.cpp:181] Memory required for data: 53792400
I0504 08:48:02.901619 13354 layer_factory.hpp:77] Creating layer fc_10_lhs_dual
I0504 08:48:02.901626 13354 net.cpp:116] Creating Layer fc_10_lhs_dual
I0504 08:48:02.901630 13354 net.cpp:450] fc_10_lhs_dual <- conv2_lhs_dual
I0504 08:48:02.901635 13354 net.cpp:424] fc_10_lhs_dual -> fc_10_lhs_dual
I0504 08:48:02.901798 13354 net.cpp:166] Setting up fc_10_lhs_dual
I0504 08:48:02.901805 13354 net.cpp:173] Top shape: 300 10 (3000)
I0504 08:48:02.901808 13354 net.cpp:181] Memory required for data: 53804400
I0504 08:48:02.901814 13354 layer_factory.hpp:77] Creating layer fc_10_rhs_dual
I0504 08:48:02.901821 13354 net.cpp:116] Creating Layer fc_10_rhs_dual
I0504 08:48:02.901823 13354 net.cpp:450] fc_10_rhs_dual <- conv2_rhs_dual
I0504 08:48:02.901829 13354 net.cpp:424] fc_10_rhs_dual -> fc_10_rhs_dual
I0504 08:48:02.901963 13354 net.cpp:166] Setting up fc_10_rhs_dual
I0504 08:48:02.901971 13354 net.cpp:173] Top shape: 300 10 (3000)
I0504 08:48:02.901973 13354 net.cpp:181] Memory required for data: 53816400
I0504 08:48:02.901980 13354 layer_factory.hpp:77] Creating layer fc_10_dual
I0504 08:48:02.901986 13354 net.cpp:116] Creating Layer fc_10_dual
I0504 08:48:02.901989 13354 net.cpp:450] fc_10_dual <- fc_10_rhs_dual
I0504 08:48:02.901993 13354 net.cpp:450] fc_10_dual <- fc_10_lhs_dual
I0504 08:48:02.901996 13354 net.cpp:424] fc_10_dual -> fc_10_dual
I0504 08:48:02.902020 13354 net.cpp:166] Setting up fc_10_dual
I0504 08:48:02.902026 13354 net.cpp:173] Top shape: 300 10 (3000)
I0504 08:48:02.902029 13354 net.cpp:181] Memory required for data: 53828400
I0504 08:48:02.902031 13354 layer_factory.hpp:77] Creating layer loss_dual
I0504 08:48:02.902040 13354 net.cpp:116] Creating Layer loss_dual
I0504 08:48:02.902042 13354 net.cpp:450] loss_dual <- fc_10_dual
I0504 08:48:02.902045 13354 net.cpp:450] loss_dual <- label_data_1_split_0
I0504 08:48:02.902050 13354 net.cpp:424] loss_dual -> loss_dual
I0504 08:48:02.902057 13354 layer_factory.hpp:77] Creating layer loss_dual
I0504 08:48:02.903167 13354 net.cpp:166] Setting up loss_dual
I0504 08:48:02.903178 13354 net.cpp:173] Top shape: (1)
I0504 08:48:02.903182 13354 net.cpp:176]     with loss weight 1
I0504 08:48:02.903209 13354 net.cpp:181] Memory required for data: 53828404
I0504 08:48:02.903213 13354 layer_factory.hpp:77] Creating layer conv1_single
I0504 08:48:02.903223 13354 net.cpp:116] Creating Layer conv1_single
I0504 08:48:02.903226 13354 net.cpp:450] conv1_single <- data_data_scaling_0_split_1
I0504 08:48:02.903233 13354 net.cpp:424] conv1_single -> conv1_single
I0504 08:48:02.906240 13354 net.cpp:166] Setting up conv1_single
I0504 08:48:02.906253 13354 net.cpp:173] Top shape: 300 36 13 13 (1825200)
I0504 08:48:02.906256 13354 net.cpp:181] Memory required for data: 61129204
I0504 08:48:02.906263 13354 layer_factory.hpp:77] Creating layer relu/conv1_single
I0504 08:48:02.906270 13354 net.cpp:116] Creating Layer relu/conv1_single
I0504 08:48:02.906272 13354 net.cpp:450] relu/conv1_single <- conv1_single
I0504 08:48:02.906276 13354 net.cpp:424] relu/conv1_single -> relu/conv1_single
I0504 08:48:02.907294 13354 net.cpp:166] Setting up relu/conv1_single
I0504 08:48:02.907306 13354 net.cpp:173] Top shape: 300 36 13 13 (1825200)
I0504 08:48:02.907310 13354 net.cpp:181] Memory required for data: 68430004
I0504 08:48:02.907312 13354 layer_factory.hpp:77] Creating layer conv2_single
I0504 08:48:02.907321 13354 net.cpp:116] Creating Layer conv2_single
I0504 08:48:02.907325 13354 net.cpp:450] conv2_single <- relu/conv1_single
I0504 08:48:02.907330 13354 net.cpp:424] conv2_single -> conv2_single
I0504 08:48:02.910768 13354 net.cpp:166] Setting up conv2_single
I0504 08:48:02.910780 13354 net.cpp:173] Top shape: 300 36 6 6 (388800)
I0504 08:48:02.910784 13354 net.cpp:181] Memory required for data: 69985204
I0504 08:48:02.910789 13354 layer_factory.hpp:77] Creating layer relu/conv2_single
I0504 08:48:02.910795 13354 net.cpp:116] Creating Layer relu/conv2_single
I0504 08:48:02.910799 13354 net.cpp:450] relu/conv2_single <- conv2_single
I0504 08:48:02.910802 13354 net.cpp:411] relu/conv2_single -> conv2_single (in-place)
I0504 08:48:02.911825 13354 net.cpp:166] Setting up relu/conv2_single
I0504 08:48:02.911834 13354 net.cpp:173] Top shape: 300 36 6 6 (388800)
I0504 08:48:02.911837 13354 net.cpp:181] Memory required for data: 71540404
I0504 08:48:02.911840 13354 layer_factory.hpp:77] Creating layer fc_10_single
I0504 08:48:02.911846 13354 net.cpp:116] Creating Layer fc_10_single
I0504 08:48:02.911850 13354 net.cpp:450] fc_10_single <- conv2_single
I0504 08:48:02.911855 13354 net.cpp:424] fc_10_single -> fc_10_single
I0504 08:48:02.912001 13354 net.cpp:166] Setting up fc_10_single
I0504 08:48:02.912009 13354 net.cpp:173] Top shape: 300 10 (3000)
I0504 08:48:02.912012 13354 net.cpp:181] Memory required for data: 71552404
I0504 08:48:02.912017 13354 layer_factory.hpp:77] Creating layer loss_single
I0504 08:48:02.912022 13354 net.cpp:116] Creating Layer loss_single
I0504 08:48:02.912025 13354 net.cpp:450] loss_single <- fc_10_single
I0504 08:48:02.912029 13354 net.cpp:450] loss_single <- label_data_1_split_1
I0504 08:48:02.912034 13354 net.cpp:424] loss_single -> loss_single
…
I0504 08:48:02.914664 13354 net.cpp:338] The NetState phase (1) differed from the phase (0) specified by a rule in layer loss_dual
I0504 08:48:02.914670 13354 net.cpp:338] The NetState phase (1) differed from the phase (0) specified by a rule in layer loss_single
I0504 08:48:02.914841 13354 net.cpp:74] Initializing net from parameters: 
name: "MNIST_NET"
state {
  phase: TEST
}
layer {
  name: "data"
  type: "ImageData"
  top: "data"
  top: "label"
  include {
    phase: TEST
  }
  image_data_param {
    source: "test.txt"
    batch_size: 100
    crop_size: 27
    shuffle: true
    is_color: false
  }
}
layer {
  name: "data_scaling"
  type: "Power"
  bottom: "data"
  top: "data"
  power_param {
    power: 1
    scale: 0.0078125
    shift: -1
  }
}
layer {
  name: "conv1_dual"
  type: "Convolution"
  bottom: "data"
  top: "conv1_dual"
  param {
    name: "conv1_w_dual"
    lr_mult: 1
    decay_mult: 1
  }
  param {
    name: "conv1_b_dual"
    lr_mult: 2
    decay_mult: 0
  }
  convolution_param {
    num_output: 36
    kernel_size: 3
    stride: 2
    weight_filler {
      type: "xavier"
    }
    bias_filler {
      type: "constant"
      value: 0
    }
  }
}
layer {
  name: "relu/conv1_dual"
  type: "ReLU"
  bottom: "conv1_dual"
  top: "relu/conv1_dual"
}
layer {
  name: "conv1_minus_dual"
  type: "Power"
  bottom: "conv1_dual"
  top: "conv1_minus_dual"
  power_param {
    power: 1
    scale: -1
    shift: 0
  }
}
layer {
  name: "relu/conv1_minus_dual"
  type: "ReLU"
  bottom: "conv1_minus_dual"
  top: "relu/conv1_minus_dual"
}
layer {
  name: "conv2_lhs_dual"
  type: "Convolution"
  bottom: "relu/conv1_minus_dual"
  top: "conv2_lhs_dual"
  param {
    name: "conv2_w_dual"
    lr_mult: 1
    decay_mult: 1
  }
  param {
    name: "conv2_b_dual"
    lr_mult: 2
    decay_mult: 0
  }
  convolution_param {
    num_output: 36
    kernel_size: 3
    stride: 2
    weight_filler {
      type: "xavier"
    }
    bias_filler {
      type: "constant"
      value: 0
    }
  }
}
layer {
  name: "relu/conv2_lhs_dual"
  type: "ReLU"
  bottom: "conv2_lhs_dual"
  top: "conv2_lhs_dual"
}
layer {
  name: "conv2_rhs_dual"
  type: "Convolution"
  bottom: "relu/conv1_dual"
  top: "conv2_rhs_dual"
  param {
    name: "conv2_w_dual"
    lr_mult: 1
    decay_mult: 1
  }
  param {
    name: "conv2_b_dual"
    lr_mult: 2
    decay_mult: 0
  }
  convolution_param {
    num_output: 36
    kernel_size: 3
    stride: 2
    weight_filler {
      type: "xavier"
    }
    bias_filler {
      type: "constant"
      value: 0
    }
  }
}
layer {
  name: "relu/conv2_rhs_dual"
  type: "ReLU"
  bottom: "conv2_rhs_dual"
  top: "conv2_rhs_dual"
}
layer {
  name: "fc_10_lhs_dual"
  type: "InnerProduct"
  bottom: "conv2_lhs_dual"
  top: "fc_10_lhs_dual"
  param {
    name: "fc_10_w_0_dual"
    lr_mult: 5
    decay_mult: 1
  }
  param {
    name: "fc_10_b_0_dual"
    lr_mult: 10
    decay_mult: 0
  }
  inner_product_param {
    num_output: 10
    weight_filler {
      type: "xavier"
    }
    bias_filler {
      type: "constant"
      value: 0
    }
  }
}
layer {
  name: "fc_10_rhs_dual"
  type: "InnerProduct"
  bottom: "conv2_rhs_dual"
  top: "fc_10_rhs_dual"
  param {
    name: "fc_10_w_1_dual"
    lr_mult: 5
    decay_mult: 1
  }
  param {
    name: "fc_10_b_1_dual"
    lr_mult: 10
    decay_mult: 0
  }
  inner_product_param {
    num_output: 10
    weight_filler {
      type: "xavier"
    }
    bias_filler {
      type: "constant"
      value: 0
    }
  }
}
layer {
  name: "fc_10_dual"
  type: "Eltwise"
  bottom: "fc_10_rhs_dual"
  bottom: "fc_10_lhs_dual"
  top: "fc_10_dual"
  eltwise_param {
    operation: SUM
    coeff: 1
    coeff: 1
  }
}
layer {
  name: "accuracy_dual"
  type: "Accuracy"
  bottom: "fc_10_dual"
  bottom: "label"
  top: "accuracy_dual"
  include {
    phase: TEST
  }
}
layer {
  name: "conv1_single"
  type: "Convolution"
  bottom: "data"
  top: "conv1_single"
  param {
    name: "conv1_w_single"
    lr_mult: 1
    decay_mult: 1
  }
  param {
    name: "conv1_b_single"
    lr_mult: 2
    decay_mult: 0
  }
  convolution_param {
    num_output: 36
    kernel_size: 3
    stride: 2
    weight_filler {
      type: "xavier"
    }
    bias_filler {
      type: "constant"
      value: 0
    }
  }
}
layer {
  name: "relu/conv1_single"
  type: "ReLU"
  bottom: "conv1_single"
  top: "relu/conv1_single"
}
layer {
  name: "conv2_single"
  type: "Convolution"
  bottom: "relu/conv1_single"
  top: "conv2_single"
  param {
    name: "conv2_w_single"
    lr_mult: 1
    decay_mult: 1
  }
  param {
    name: "conv2_b_single"
    lr_mult: 2
    decay_mult: 0
  }
  convolution_param {
    num_output: 36
    kernel_size: 3
    stride: 2
    weight_filler {
      type: "xavier"
    }
    bias_filler {
      type: "constant"
      value: 0
    }
  }
}
layer {
  name: "relu/conv2_single"
  type: "ReLU"
  bottom: "conv2_single"
  top: "conv2_single"
}
layer {
  name: "fc_10_single"
  type: "InnerProduct"
  bottom: "conv2_single"
  top: "fc_10_single"
  param {
    name: "fc_10_w_single"
    lr_mult: 5
    decay_mult: 1
  }
  param {
    name: "fc_10_b_single"
    lr_mult: 10
    decay_mult: 0
  }
  inner_product_param {
    num_output: 10
    weight_filler {
      type: "xavier"
    }
    bias_filler {
      type: "constant"
      value: 0
    }
  }
}
layer {
  name: "accuracy_single"
  type: "Accuracy"
  bottom: "fc_10_single"
  bottom: "label"
  top: "accuracy_single"
  include {
    phase: TEST
  }
}
I0504 08:48:02.914937 13354 layer_factory.hpp:77] Creating layer data
I0504 08:48:02.914949 13354 net.cpp:116] Creating Layer data
I0504 08:48:02.914953 13354 net.cpp:424] data -> data
I0504 08:48:02.914960 13354 net.cpp:424] data -> label
I0504 08:48:02.914966 13354 image_data_layer.cpp:38] Opening file test.txt
I0504 08:48:02.917081 13354 image_data_layer.cpp:53] Shuffling data
I0504 08:48:02.917973 13354 image_data_layer.cpp:58] A total of 10000 images.
I0504 08:48:02.918170 13354 image_data_layer.cpp:85] output data size: 100,1,28,28
I0504 08:48:02.919281 13354 net.cpp:166] Setting up data
I0504 08:48:02.919297 13354 net.cpp:173] Top shape: 100 1 28 28 (78400)
I0504 08:48:02.919304 13354 net.cpp:173] Top shape: 100 (100)
I0504 08:48:02.919308 13354 net.cpp:181] Memory required for data: 314000
I0504 08:48:02.919314 13354 layer_factory.hpp:77] Creating layer label_data_1_split
I0504 08:48:02.919328 13354 net.cpp:116] Creating Layer label_data_1_split
I0504 08:48:02.919350 13354 net.cpp:450] label_data_1_split <- label
I0504 08:48:02.919359 13354 net.cpp:424] label_data_1_split -> label_data_1_split_0
I0504 08:48:02.919371 13354 net.cpp:424] label_data_1_split -> label_data_1_split_1
I0504 08:48:02.919473 13354 net.cpp:166] Setting up label_data_1_split
I0504 08:48:02.919489 13354 net.cpp:173] Top shape: 100 (100)
I0504 08:48:02.919495 13354 net.cpp:173] Top shape: 100 (100)
I0504 08:48:02.919498 13354 net.cpp:181] Memory required for data: 314800
I0504 08:48:02.919503 13354 layer_factory.hpp:77] Creating layer data_scaling
I0504 08:48:02.919514 13354 net.cpp:116] Creating Layer data_scaling
I0504 08:48:02.919518 13354 net.cpp:450] data_scaling <- data
I0504 08:48:02.919525 13354 net.cpp:411] data_scaling -> data (in-place)
I0504 08:48:02.919534 13354 net.cpp:166] Setting up data_scaling
I0504 08:48:02.919540 13354 net.cpp:173] Top shape: 100 1 28 28 (78400)
I0504 08:48:02.919544 13354 net.cpp:181] Memory required for data: 628400
I0504 08:48:02.919548 13354 layer_factory.hpp:77] Creating layer data_data_scaling_0_split
I0504 08:48:02.919554 13354 net.cpp:116] Creating Layer data_data_scaling_0_split
I0504 08:48:02.919559 13354 net.cpp:450] data_data_scaling_0_split <- data
I0504 08:48:02.919564 13354 net.cpp:424] data_data_scaling_0_split -> data_data_scaling_0_split_0
I0504 08:48:02.919574 13354 net.cpp:424] data_data_scaling_0_split -> data_data_scaling_0_split_1
I0504 08:48:02.919622 13354 net.cpp:166] Setting up data_data_scaling_0_split
I0504 08:48:02.919633 13354 net.cpp:173] Top shape: 100 1 28 28 (78400)
I0504 08:48:02.919639 13354 net.cpp:173] Top shape: 100 1 28 28 (78400)
I0504 08:48:02.919643 13354 net.cpp:181] Memory required for data: 1255600
I0504 08:48:02.919648 13354 layer_factory.hpp:77] Creating layer conv1_dual
I0504 08:48:02.919667 13354 net.cpp:116] Creating Layer conv1_dual
I0504 08:48:02.919672 13354 net.cpp:450] conv1_dual <- data_data_scaling_0_split_0
I0504 08:48:02.919682 13354 net.cpp:424] conv1_dual -> conv1_dual
I0504 08:48:02.921381 13354 net.cpp:166] Setting up conv1_dual
I0504 08:48:02.921396 13354 net.cpp:173] Top shape: 100 36 13 13 (608400)
I0504 08:48:02.921399 13354 net.cpp:181] Memory required for data: 3689200
I0504 08:48:02.921409 13354 layer_factory.hpp:77] Creating layer conv1_dual_conv1_dual_0_split
I0504 08:48:02.921422 13354 net.cpp:116] Creating Layer conv1_dual_conv1_dual_0_split
I0504 08:48:02.921427 13354 net.cpp:450] conv1_dual_conv1_dual_0_split <- conv1_dual
I0504 08:48:02.921432 13354 net.cpp:424] conv1_dual_conv1_dual_0_split -> conv1_dual_conv1_dual_0_split_0
I0504 08:48:02.921442 13354 net.cpp:424] conv1_dual_conv1_dual_0_split -> conv1_dual_conv1_dual_0_split_1
I0504 08:48:02.921501 13354 net.cpp:166] Setting up conv1_dual_conv1_dual_0_split
I0504 08:48:02.921514 13354 net.cpp:173] Top shape: 100 36 13 13 (608400)
I0504 08:48:02.921519 13354 net.cpp:173] Top shape: 100 36 13 13 (608400)
I0504 08:48:02.921524 13354 net.cpp:181] Memory required for data: 8556400
I0504 08:48:02.921528 13354 layer_factory.hpp:77] Creating layer relu/conv1_dual
I0504 08:48:02.921536 13354 net.cpp:116] Creating Layer relu/conv1_dual
I0504 08:48:02.921540 13354 net.cpp:450] relu/conv1_dual <- conv1_dual_conv1_dual_0_split_0
I0504 08:48:02.921550 13354 net.cpp:424] relu/conv1_dual -> relu/conv1_dual
I0504 08:48:02.922389 13354 net.cpp:166] Setting up relu/conv1_dual
I0504 08:48:02.922401 13354 net.cpp:173] Top shape: 100 36 13 13 (608400)
I0504 08:48:02.922405 13354 net.cpp:181] Memory required for data: 10990000
I0504 08:48:02.922407 13354 layer_factory.hpp:77] Creating layer conv1_minus_dual
I0504 08:48:02.922413 13354 net.cpp:116] Creating Layer conv1_minus_dual
I0504 08:48:02.922417 13354 net.cpp:450] conv1_minus_dual <- conv1_dual_conv1_dual_0_split_1
I0504 08:48:02.922423 13354 net.cpp:424] conv1_minus_dual -> conv1_minus_dual
I0504 08:48:02.922458 13354 net.cpp:166] Setting up conv1_minus_dual
I0504 08:48:02.922467 13354 net.cpp:173] Top shape: 100 36 13 13 (608400)
I0504 08:48:02.922472 13354 net.cpp:181] Memory required for data: 13423600
I0504 08:48:02.922498 13354 layer_factory.hpp:77] Creating layer relu/conv1_minus_dual
I0504 08:48:02.922514 13354 net.cpp:116] Creating Layer relu/conv1_minus_dual
I0504 08:48:02.922519 13354 net.cpp:450] relu/conv1_minus_dual <- conv1_minus_dual
I0504 08:48:02.922528 13354 net.cpp:424] relu/conv1_minus_dual -> relu/conv1_minus_dual
I0504 08:48:02.923552 13354 net.cpp:166] Setting up relu/conv1_minus_dual
I0504 08:48:02.923573 13354 net.cpp:173] Top shape: 100 36 13 13 (608400)
I0504 08:48:02.923575 13354 net.cpp:181] Memory required for data: 15857200
I0504 08:48:02.923578 13354 layer_factory.hpp:77] Creating layer conv2_lhs_dual
I0504 08:48:02.923589 13354 net.cpp:116] Creating Layer conv2_lhs_dual
I0504 08:48:02.923593 13354 net.cpp:450] conv2_lhs_dual <- relu/conv1_minus_dual
I0504 08:48:02.923601 13354 net.cpp:424] conv2_lhs_dual -> conv2_lhs_dual
I0504 08:48:02.927037 13354 net.cpp:166] Setting up conv2_lhs_dual
I0504 08:48:02.927049 13354 net.cpp:173] Top shape: 100 36 6 6 (129600)
I0504 08:48:02.927052 13354 net.cpp:181] Memory required for data: 16375600
I0504 08:48:02.927060 13354 layer_factory.hpp:77] Creating layer relu/conv2_lhs_dual
I0504 08:48:02.927065 13354 net.cpp:116] Creating Layer relu/conv2_lhs_dual
I0504 08:48:02.927068 13354 net.cpp:450] relu/conv2_lhs_dual <- conv2_lhs_dual
I0504 08:48:02.927073 13354 net.cpp:411] relu/conv2_lhs_dual -> conv2_lhs_dual (in-place)
I0504 08:48:02.928043 13354 net.cpp:166] Setting up relu/conv2_lhs_dual
I0504 08:48:02.928055 13354 net.cpp:173] Top shape: 100 36 6 6 (129600)
I0504 08:48:02.928056 13354 net.cpp:181] Memory required for data: 16894000
I0504 08:48:02.928059 13354 layer_factory.hpp:77] Creating layer conv2_rhs_dual
I0504 08:48:02.928069 13354 net.cpp:116] Creating Layer conv2_rhs_dual
I0504 08:48:02.928072 13354 net.cpp:450] conv2_rhs_dual <- relu/conv1_dual
I0504 08:48:02.928079 13354 net.cpp:424] conv2_rhs_dual -> conv2_rhs_dual
I0504 08:48:02.931551 13354 net.cpp:166] Setting up conv2_rhs_dual
I0504 08:48:02.931565 13354 net.cpp:173] Top shape: 100 36 6 6 (129600)
I0504 08:48:02.931567 13354 net.cpp:181] Memory required for data: 17412400
I0504 08:48:02.931572 13354 net.cpp:509] Sharing parameters 'conv2_w_dual' owned by layer 'conv2_lhs_dual', param index 0
I0504 08:48:02.931576 13354 net.cpp:509] Sharing parameters 'conv2_b_dual' owned by layer 'conv2_lhs_dual', param index 1
I0504 08:48:02.931579 13354 layer_factory.hpp:77] Creating layer relu/conv2_rhs_dual
I0504 08:48:02.931589 13354 net.cpp:116] Creating Layer relu/conv2_rhs_dual
I0504 08:48:02.931594 13354 net.cpp:450] relu/conv2_rhs_dual <- conv2_rhs_dual
I0504 08:48:02.931601 13354 net.cpp:411] relu/conv2_rhs_dual -> conv2_rhs_dual (in-place)
I0504 08:48:02.932602 13354 net.cpp:166] Setting up relu/conv2_rhs_dual
I0504 08:48:02.932612 13354 net.cpp:173] Top shape: 100 36 6 6 (129600)
I0504 08:48:02.932615 13354 net.cpp:181] Memory required for data: 17930800
I0504 08:48:02.932618 13354 layer_factory.hpp:77] Creating layer fc_10_lhs_dual
I0504 08:48:02.932627 13354 net.cpp:116] Creating Layer fc_10_lhs_dual
I0504 08:48:02.932631 13354 net.cpp:450] fc_10_lhs_dual <- conv2_lhs_dual
I0504 08:48:02.932636 13354 net.cpp:424] fc_10_lhs_dual -> fc_10_lhs_dual
I0504 08:48:02.932901 13354 net.cpp:166] Setting up fc_10_lhs_dual
I0504 08:48:02.932915 13354 net.cpp:173] Top shape: 100 10 (1000)
I0504 08:48:02.932919 13354 net.cpp:181] Memory required for data: 17934800
I0504 08:48:02.932929 13354 layer_factory.hpp:77] Creating layer fc_10_rhs_dual
I0504 08:48:02.932937 13354 net.cpp:116] Creating Layer fc_10_rhs_dual
I0504 08:48:02.932941 13354 net.cpp:450] fc_10_rhs_dual <- conv2_rhs_dual
I0504 08:48:02.932951 13354 net.cpp:424] fc_10_rhs_dual -> fc_10_rhs_dual
I0504 08:48:02.933204 13354 net.cpp:166] Setting up fc_10_rhs_dual
I0504 08:48:02.933218 13354 net.cpp:173] Top shape: 100 10 (1000)
I0504 08:48:02.933221 13354 net.cpp:181] Memory required for data: 17938800
I0504 08:48:02.933231 13354 layer_factory.hpp:77] Creating layer fc_10_dual
I0504 08:48:02.933239 13354 net.cpp:116] Creating Layer fc_10_dual
I0504 08:48:02.933259 13354 net.cpp:450] fc_10_dual <- fc_10_rhs_dual
I0504 08:48:02.933264 13354 net.cpp:450] fc_10_dual <- fc_10_lhs_dual
I0504 08:48:02.933271 13354 net.cpp:424] fc_10_dual -> fc_10_dual
I0504 08:48:02.933311 13354 net.cpp:166] Setting up fc_10_dual
I0504 08:48:02.933324 13354 net.cpp:173] Top shape: 100 10 (1000)
I0504 08:48:02.933328 13354 net.cpp:181] Memory required for data: 17942800
I0504 08:48:02.933333 13354 layer_factory.hpp:77] Creating layer accuracy_dual
I0504 08:48:02.933346 13354 net.cpp:116] Creating Layer accuracy_dual
I0504 08:48:02.933349 13354 net.cpp:450] accuracy_dual <- fc_10_dual
I0504 08:48:02.933356 13354 net.cpp:450] accuracy_dual <- label_data_1_split_0
I0504 08:48:02.933362 13354 net.cpp:424] accuracy_dual -> accuracy_dual
I0504 08:48:02.933372 13354 net.cpp:166] Setting up accuracy_dual
I0504 08:48:02.933378 13354 net.cpp:173] Top shape: (1)
I0504 08:48:02.933382 13354 net.cpp:181] Memory required for data: 17942804
I0504 08:48:02.933387 13354 layer_factory.hpp:77] Creating layer conv1_single
I0504 08:48:02.933400 13354 net.cpp:116] Creating Layer conv1_single
I0504 08:48:02.933404 13354 net.cpp:450] conv1_single <- data_data_scaling_0_split_1
I0504 08:48:02.933413 13354 net.cpp:424] conv1_single -> conv1_single
I0504 08:48:02.936097 13354 net.cpp:166] Setting up conv1_single
I0504 08:48:02.936110 13354 net.cpp:173] Top shape: 100 36 13 13 (608400)
I0504 08:48:02.936112 13354 net.cpp:181] Memory required for data: 20376404
I0504 08:48:02.936118 13354 layer_factory.hpp:77] Creating layer relu/conv1_single
I0504 08:48:02.936125 13354 net.cpp:116] Creating Layer relu/conv1_single
I0504 08:48:02.936128 13354 net.cpp:450] relu/conv1_single <- conv1_single
I0504 08:48:02.936132 13354 net.cpp:424] relu/conv1_single -> relu/conv1_single
I0504 08:48:02.937207 13354 net.cpp:166] Setting up relu/conv1_single
I0504 08:48:02.937219 13354 net.cpp:173] Top shape: 100 36 13 13 (608400)
I0504 08:48:02.937222 13354 net.cpp:181] Memory required for data: 22810004
I0504 08:48:02.937225 13354 layer_factory.hpp:77] Creating layer conv2_single
I0504 08:48:02.937235 13354 net.cpp:116] Creating Layer conv2_single
I0504 08:48:02.937238 13354 net.cpp:450] conv2_single <- relu/conv1_single
I0504 08:48:02.937244 13354 net.cpp:424] conv2_single -> conv2_single
I0504 08:48:02.939821 13354 net.cpp:166] Setting up conv2_single
I0504 08:48:02.939836 13354 net.cpp:173] Top shape: 100 36 6 6 (129600)
I0504 08:48:02.939841 13354 net.cpp:181] Memory required for data: 23328404
I0504 08:48:02.939848 13354 layer_factory.hpp:77] Creating layer relu/conv2_single
I0504 08:48:02.939858 13354 net.cpp:116] Creating Layer relu/conv2_single
I0504 08:48:02.939863 13354 net.cpp:450] relu/conv2_single <- conv2_single
I0504 08:48:02.939872 13354 net.cpp:411] relu/conv2_single -> conv2_single (in-place)
I0504 08:48:02.940096 13354 net.cpp:166] Setting up relu/conv2_single
I0504 08:48:02.940136 13354 net.cpp:173] Top shape: 100 36 6 6 (129600)
I0504 08:48:02.940157 13354 net.cpp:181] Memory required for data: 23846804
I0504 08:48:02.940179 13354 layer_factory.hpp:77] Creating layer fc_10_single
I0504 08:48:02.940209 13354 net.cpp:116] Creating Layer fc_10_single
I0504 08:48:02.940230 13354 net.cpp:450] fc_10_single <- conv2_single
I0504 08:48:02.940254 13354 net.cpp:424] fc_10_single -> fc_10_single
I0504 08:48:02.940541 13354 net.cpp:166] Setting up fc_10_single
I0504 08:48:02.940574 13354 net.cpp:173] Top shape: 100 10 (1000)
I0504 08:48:02.940598 13354 net.cpp:181] Memory required for data: 23850804
I0504 08:48:02.940624 13354 layer_factory.hpp:77] Creating layer accuracy_single
I0504 08:48:02.940649 13354 net.cpp:116] Creating Layer accuracy_single
I0504 08:48:02.940656 13354 net.cpp:450] accuracy_single <- fc_10_single
I0504 08:48:02.940662 13354 net.cpp:450] accuracy_single <- label_data_1_split_1
I0504 08:48:02.940671 13354 net.cpp:424] accuracy_single -> accuracy_single
…
